2-binary-image-classification/weights.pt (torch, 512926 bytes, 12 tensors)

conv1.weight f4 [8, 3, 3, 3]
000000 9f 38 05 be 91 88 8b bc 15 c0 22 be af 3f 1a be
       -0.1300988 -0.017032893 -0.15893586 -0.15063356
000010 b5 46 2b bd a7 40 17 3e 11 2c 7c 3d da bb 06 3e
       -0.04181548 0.14770757 0.061565462 0.13157597
000020 ed 09 5b be bd 32 b2 bc ab 13 ed bd ca 59 a7 bd
       -0.21390505 -0.02175271 -0.11576017 -0.08171423
000030 79 11 2e 3e ca bd aa bc 0d 52 26 3c cd b0 65 3d
       0.16998853 -0.020842452 0.010151398 0.056076813
000040 ed 6d e7 bd 80 fb be 3d 43 25 7a 3c d2 4d ec 3d
       -0.113002636 0.093253136 0.015267673 0.115382805
000050 ee 41 81 3d 60 1e 41 be db 94 20 3e 98 fb 03 3e
       0.06311403 -0.18859243 0.15681784 0.12888944
000060 8d 38 18 3e cf 31 4a 3d 09 8e 34 bd 4f c4 85 3d
       0.14865322 0.049363907 -0.044080768 0.065315835
000070 ad 5c cd 3d b5 21 bf bd a6 cc 2b be 4e a5 a6 3d
       0.10027442 -0.09332601 -0.16777286 0.08136998
000080 9c 72 79 bd 5e 55 36 be 7f 6d 0d be c5 cc 41 be
       -0.060900316 -0.17806002 -0.138113 -0.1892577
000090 97 56 eb 3d 68 83 55 3e c7 ee 97 bb e9 53 a3 3d
       0.11491125 0.20850909 -0.004636619 0.07974989
0000a0 fa 2c e9 bd bd 78 67 3c ea 98 c8 bd cb 9a 1c be
       -0.11385532 0.014127907 -0.09794791 -0.15293424
0000b0 33 cb c9 bc f4 4c d9 bd 9d 50 20 3d f6 15 07 3d
       -0.024633026 -0.10610381 0.03913938 0.032979928
0000c0 31 9a 87 bc 71 f2 f5 bd 67 b6 21 be e8 a9 32 3e
       -0.016553016 -0.12009133 -0.15792237 0.17447627
0000d0 c0 39 3a 3e c4 74 df 3d 02 60 e4 bc 17 e1 47 be
       0.18186092 0.10910943 -0.027877811 -0.19519459
0000e0 a8 12 46 be 36 14 28 3e a0 cf b8 bd 5c c7 36 3d
       -0.19343054 0.1641396 -0.09023976 0.044623718
0000f0 5b c2 10 3c 7e 8d 92 3d f1 92 3d be 64 e3 ac 3d
       0.0088354 0.07155894 -0.18513085 0.08441809
000100 dc ea 52 3d a3 55 66 3d 15 28 0a 3e 89 81 7b 3d
       0.05149351 0.056234013 0.13491853 0.06140283
000110 1c fe 51 bd c7 a3 97 bd 55 9a 13 3e ab 52 81 3c
       -0.05126773 -0.07404285 0.14414342 0.01578649
000120 77 3b 25 3e 76 19 fa bc 4b 70 e2 3d 48 f1 07 3e
       0.16135965 -0.030529719 0.110565744 0.13275635
000130 19 c5 01 be a5 63 4d bc 11 6c ac bc 8f 1d 1e be
       -0.12672843 -0.012535964 -0.021047624 -0.15440963
000140 e9 fd ca bd f4 24 06 bd 70 8e 46 3e d0 bc 45 3e
       -0.09911711 -0.032750085 0.19390273 0.19310308
000150 b3 95 4a 3e c5 9c f4 3c 8b 13 e2 bc 43 24 7a bd
       0.19783668 0.02985991 -0.02759721 -0.061069738
000160 10 6c f6 3d 9a 8f 46 bc aa 5f 33 3d 7f ce c9 3b
       0.1203233 -0.012119198 0.043792404 0.0061586495
000170 45 df 50 be 10 04 83 3d 11 08 29 3e 34 48 30 bd
       -0.2039767 0.06397259 0.16506983 -0.04303761
000180 2b 80 35 be b8 ef 35 bd 9c 55 1f be 08 31 a5 bd
       -0.17724673 -0.044418067 -0.15560001 -0.080659926
000190 cb 21 53 3c 4f d6 94 bd e5 6c e5 3d 1d 6a 7a bd
       0.012886475 -0.072674386 0.112024106 -0.061136354
0001a0 66 02 23 3e 82 42 1c be eb a1 cd 3d 67 3e 65 bc
       0.15918884 -0.15259746 0.10040649 -0.013991929
0001b0 b9 88 4c be 4d a9 bc 3d db a2 c3 bd 0a 79 40 3e
       -0.1997403 0.09211979 -0.095525466 0.18796173
0001c0 b3 8d a6 3d 81 a7 c3 bd c8 96 21 3e c1 4d ed bd
       0.08132496 -0.09553433 0.15780175 -0.11587096
0001d0 40 25 94 bd fc c4 20 3e 68 e7 00 3d 16 47 37 3d
       -0.072336674 0.15700144 0.031470686 0.044745527
0001e0 25 9e 10 3e 05 e0 59 3e 63 09 b9 3d fb a7 0c 3d
       0.14122827 0.21276863 0.090349935 0.034339886
0001f0 5a 99 31 3e 66 cd 6b 3c 02 7f 0b bc 46 8c b8 3d
       0.17343655 0.0143922325 -0.008514168 0.0901113
000200 42 6e 55 bc 99 6a d4 3c 96 1f 51 bd 4b 2b 30 be
       -0.013026776 0.025929736 -0.051055513 -0.17204015
000210 03 8a 32 3e bb c4 d8 bc e7 28 30 be ce 48 d1 bd
       0.1743546 -0.026460996 -0.17203103 -0.102189645
000220 35 0f 5e 3d ed bd cc bc b3 84 eb 3d ca d7 27 be
       0.05421372 -0.024992907 0.1149992 -0.1639091
000230 4d 68 f7 bd 8e 51 d5 bd 4c 25 3e be 59 b3 db 3c
       -0.12080441 -0.10415946 -0.18568915 0.026818918
000240 37 63 89 3c 98 9e a3 bd 91 a4 1b be f0 24 04 be
       0.016770942 -0.07989234 -0.15199496 -0.12904716
000250 9c 9b 34 3e c2 55 22 3e ed a1 01 bd c4 6d 32 bd
       0.17637485 0.15853027 -0.031648565 -0.043561712
000260 b6 23 e3 bd 4e f3 37 be 38 f8 f4 3c a5 50 db bd
       -0.11090796 -0.17963907 0.029903516 -0.10708741
000270 6a 8c 00 bd a1 79 48 bc b0 5a db bd a7 bf 56 3d
       -0.03138391 -0.01223603 -0.10710657 0.052428868
000280 e3 08 14 bd 82 2b b3 bd 00 91 da 3d 88 2e d5 bd
       -0.036141288 -0.08748533 0.10672188 -0.10409266
000290 f8 c5 57 bd 03 4a b5 3d 35 54 49 bd 5a ed d0 3d
       -0.052679032 0.08852007 -0.04915257 0.10201521
0002a0 ad 74 3b bd e2 29 aa 3b ea 56 a9 bd f8 3d f5 bc
       -0.045765568 0.005192981 -0.08268531 -0.029936776
0002b0 36 5f e1 3d 99 f9 1d be 6b 95 3f bc 7c 8b 9a bc
       0.11004488 -0.15427245 -0.011693339 -0.01886534
0002c0 fe f6 08 3e 0a 8b 77 be 87 70 a0 bb d3 c7 19 bc
       0.1337547 -0.24174133 -0.004896227 -0.009386021
0002d0 97 66 19 3e 4a 41 d3 3d 95 78 d1 3c 0b 1b de 3d
       0.14980541 0.10315187 0.025570193 0.10845002
0002e0 6c 96 c3 bc 69 24 7a 3d d0 d8 e9 bd 07 a3 47 3e
       -0.023875438 0.06106988 -0.11418307 0.19495784
0002f0 58 11 30 be 07 75 aa bc 06 b4 c2 3d 95 e1 91 3a
       -0.17194116 -0.020807756 0.09506993 0.0011129851
000300 80 ec 7f bd cd 8e e5 3d 78 38 2b bb f8 c8 59 3e
       -0.062481403 0.11208878 -0.0026126187 0.2126807
000310 c9 ff 0f bd cc 62 6b 3d 6a a3 09 3d 70 06 91 3d
       -0.035156045 0.057467267 0.03360311 0.07081306
000320 aa cf 58 be 8d 8d 0e bd 09 7f 32 bc b2 59 6f bd
       -0.21172968 -0.034802962 -0.010894545 -0.05843515
000330 4a 61 0a be 1c 46 46 be 28 1a b2 3d fe 5c 39 bd
       -0.13513675 -0.19362682 0.08696395 -0.0452547
000340 35 eb 55 bb 1b a8 ab 3d 35 4b d1 bb 06 83 03 3e
       -0.0032641415 0.08381673 -0.006387139 0.1284295
000350 a6 ff 2e bd d7 32 1a bd 28 42 26 be 54 c3 ef bd
       -0.042724274 -0.03764614 -0.16236174 -0.11707178

conv1.bias f4 [8]
000000 b9 2d 72 3d 00 35 65 3e 6f 81 18 3e 27 6a 57 be
       0.059125636 0.22383499 0.14893125 -0.21036588
000010 d7 e5 07 be d7 39 00 be b8 6a 0a be ef d1 39 3e
       -0.1327127 -0.12522064 -0.13517272 0.1814649

conv2.weight f4 [16, 8, 3, 3]
000000 2f 6f 0f bd 85 cb 15 3d 68 4e a6 bd 49 d1 f1 3d
       -0.035018142 0.036571044 -0.081204236 0.11807496
000010 32 1e df 3d a8 99 9d bd 8c 68 d1 bd 7f dc b4 3d
       0.10894431 -0.07695323 -0.10225019 0.08831119
000020 ac 6c da 3d 39 d4 c0 3d d5 65 d0 3c 0c 22 ac bc
       0.10665259 0.09415478 0.025439182 -0.021012329
000030 6f d8 7a bd f9 ff b9 bc 2b 1b b0 bd 1e 45 f3 3c
       -0.061241563 -0.022705065 -0.08598932 0.029696044
000040 d5 cb d1 bd 36 ee c7 bc 96 0f 82 bc 9a 75 c5 bd
       -0.10243956 -0.02440558 -0.015876573 -0.09641571
000050 c4 cf 8c 3d 45 4d 6f 3d e4 3d 86 3d 78 b2 d5 bc
       0.06875566 0.0584233 0.065547734 -0.026086077
000060 29 27 c1 bc 59 d8 96 bb 6b 14 fe 3d 5a 61 a5 3d
       -0.023578243 -0.0046034274 0.12406238 0.08075209
000070 f1 60 9e 3d c5 dd c4 3d af 12 8c bd 71 d8 ee 3d
       0.07733334 0.09612612 -0.06839501 0.11662377
000080 b2 5e 80 bd 4c 40 09 3e 18 42 16 3e 49 96 a9 3d
       -0.06268062 0.13403434 0.1467365 0.08280618
000090 e9 f7 88 bd 7a a2 52 bd 6a 0f b3 3b bc 4e cd 3d
       -0.0668791 -0.05142448 0.005464484 0.10024783
0000a0 a5 c1 1b 3d a8 73 1f 3d ad 1f 4d 3d 72 d8 d0 bd
       0.03802647 0.038928658 0.050079037 -0.10197534
0000b0 4c 5c 6d 3d 64 a2 cd bc 6f ed c9 3d 58 76 77 bc
       0.05794935 -0.025101848 0.0985974 -0.015103899
0000c0 b8 d4 9c bd e1 b4 ec 3d cc 44 e9 bd 37 4b 83 bd
       -0.076577604 0.115579374 -0.11390075 -0.064108305
0000d0 69 82 87 3d df 2f c0 3d 80 92 0f 3e 64 36 8c bc
       0.06616671 0.09384131 0.14020729 -0.01711578
0000e0 c2 2c b1 3c 99 c1 6f 3d 0c e6 ae 3d ae d4 8b bd
       0.021627788 0.05853424 0.08539972 -0.06827675
0000f0 9c 87 57 3c b1 3e 09 3c b4 80 aa 3d 52 f9 d3 3d
       0.01315489 0.008376763 0.083253294 0.103502885
000100 de 96 01 3e 4e 65 a7 3d b1 d7 7b 3d 1d 41 ad bc
       0.12655208 0.08173619 0.061484996 -0.021149212
000110 f7 6a 7a 3c 9e 5f e2 3d c6 5e df 3d 35 b3 49 3b
       0.0152842915 0.11053394 0.109067485 0.0030776982
000120 81 7f ae bd f8 9a 9a 3d 13 69 56 bd 23 73 81 3b
       -0.08520413 0.07549089 -0.0523463 0.003950493
000130 bb aa fe bd e4 44 a4 bd 6e 95 b4 bd 5a c6 2f bd
       -0.12434908 -0.08020952 -0.08817564 -0.042913772
000140 7f e6 83 3d d0 c4 57 3d 79 bc 40 bd d5 d1 8e bd
       0.06440448 0.05267793 -0.04705474 -0.06973616
000150 2a 19 89 3d 67 9a d7 3c bb c3 bb 3c 78 cf 09 3e
       0.06694253 0.026318742 0.02292048 0.1345805
000160 3a e7 90 3d 1a db e7 3d e9 c7 5c bc cc 2d da bc
       0.07075353 0.11321087 -0.013475397 -0.026633166
000170 17 23 d0 3d 3f a4 7d 3d 32 24 ee bd 10 da 89 3d
       0.10162943 0.061924215 -0.116279975 0.06731045
000180 2b 5b d4 3d 8b 82 78 bd ef 69 54 3d 33 2c 14 bc
       0.103689514 -0.06067137 0.05185884 -0.009043741
000190 b7 9f 23 3d 72 b2 b6 3c f7 04 df bc ab c6 04 3e
       0.039947238 0.022301886 -0.027224047 0.12966411
0001a0 af c2 75 3d 1b af d0 bd 2a 86 54 3d 62 9c 8a 3d
       0.060000118 -0.10189649 0.05188576 0.06768109
0001b0 5d ef 85 3d e3 29 cd bd 3c ae 42 bd ba 42 81 bb
       0.065397955 -0.10017755 -0.047529444 -0.003944722
0001c0 8e bc af bd bc 64 c8 3d ed cb 94 bd 95 8c 31 be
       -0.08580886 0.097848386 -0.07265458 -0.17338784
0001d0 1e ab 20 bd 32 a0 fe bc db 28 75 3c eb 38 bd 3d
       -0.03922569 -0.031082246 0.014963354 0.09239372
0001e0 2f cb 0f bd ff b8 e9 3d 33 06 f2 bc 55 63 d6 3d
       -0.03510588 0.11412238 -0.029543972 0.10468165
0001f0 ed 1e 06 bc 56 94 a2 3c fe 19 08 be a2 10 61 3c
       -0.008186084 0.019846123 -0.13291165 0.013736876
000200 29 87 b6 bd 65 4f 77 3d 91 73 8b 3d 90 79 ce 3d
       -0.089124985 0.06037845 0.06809152 0.1008178
000210 bb 0f 66 bd 14 8d 03 bd 55 bd ae 3d 06 28 26 bd
       -0.056167345 -0.032116964 0.08532206 -0.040565513
000220 a9 0f 81 bd ab d0 96 3d 66 d1 0a 3e b5 87 20 bd
       -0.06301815 0.07364019 0.13556442 -0.03919192
000230 cf 70 51 3d 13 23 42 3d cd dc ad 3d 14 be 84 3d
       0.051132973 0.04739673 0.0848938 0.06481567
000240 cf a9 0f 3d a8 08 b3 bd 7c ff e1 bd ec f6 c9 3d
       0.03507405 -0.087418854 -0.11035058 0.0986155
000250 fc 78 47 3c db 79 79 bb fd 10 be bb 00 08 fb bc
       0.012174841 -0.0038067016 -0.005800365 -0.030643463
000260 f7 48 bc 3d 20 db d1 3d 5c d7 22 3e 80 79 a2 3d
       0.091936044 0.10246873 0.15902466 0.079333305
000270 67 64 96 3d 18 a7 13 bd ff 01 65 bd 98 15 eb bc
       0.07343369 -0.036048025 -0.055910107 -0.02869682
000280 a2 74 04 3e f2 91 f3 3d b7 6b fb 3c 55 dc c4 3d
       0.12935117 0.11893071 0.03069101 0.096123375
000290 62 0f c1 bd 00 68 f3 3d 73 a9 ff bb e6 a8 db bd
       -0.09426762 0.11885071 -0.0078021823 -0.10725574
0002a0 2b 10 c9 3d d9 b0 84 3d 94 a9 c6 bd 0b e0 1e bd
       0.09817537 0.064790435 -0.09700313 -0.038787883
0002b0 20 a1 cb bd 1e f7 a7 bd 4a 86 43 3d 29 c8 02 be
       -0.099428415 -0.08201431 0.04773549 -0.12771668
0002c0 b9 e1 07 be 68 50 77 3d c3 55 c8 bd 6e 7b fa 3c
       -0.132697 0.060379416 -0.09781983 0.030576434
0002d0 80 39 04 3e fa ad 9d 3d 56 69 c1 bd aa 80 9d 3d
       0.1291256 0.07699199 -0.09443919 0.07690556
0002e0 40 4f e6 3d 53 59 8e bd 80 50 ca bd 29 9e 13 bd
       0.112455845 -0.06950631 -0.098786354 -0.036039505
0002f0 b7 40 68 3c ef 84 dd 3c e7 cf 86 3d 86 53 b7 3d
       0.0141755855 0.027040927 0.06582623 0.08951478
000300 9a 40 8a 3d 5a 0f 52 bd c9 3d 8b 3d d4 06 69 bb
       0.06750603 -0.05128417 0.06798894 -0.0035557048
000310 03 10 b1 3d 5b 36 33 bd 91 b7 8a bd 1c 27 0d bd
       0.08645632 -0.04375301 -0.06773294 -0.034461126
000320 21 a1 c3 3d f0 47 19 be d4 e5 2a be 5d a5 3d be
       0.09552217 -0.14968848 -0.16689235 -0.18520112
000330 e4 19 13 be 3c bb 2a bb 34 51 8a 3b fe 5f fb bd
       -0.14365345 -0.0026051542 0.004221106 -0.122741684
000340 79 6d ab bd 0e ca a2 bc 56 30 bb bd 73 8c a0 3d
       -0.083704896 -0.019871738 -0.09140079 0.078392886
000350 b5 0f 10 be 41 b9 1c bd 7d 71 08 be 53 c8 a1 3b
       -0.14068492 -0.03826261 -0.13324542 0.0049372106
000360 ad f3 70 3d 88 f2 22 bd 98 47 9c 3d 37 7e 8c bd
       0.058826137 -0.039782077 0.07630843 -0.06860011
000370 f7 9e 9e 3d d3 9d 1c 3c a3 ee 1f bd 0d 07 fe 3d
       0.07745164 0.009559113 -0.03904594 0.124036886
000380 9e fd 78 3d 09 1c 87 3b 6c d7 69 bd 79 df 0b be
       0.060788743 0.004123215 -0.057090208 -0.13659467
000390 5b dd 0f be 14 c5 b0 3c d7 67 38 be 95 db 38 3d
       -0.14049284 0.02157835 -0.18008362 0.045131285
0003a0 bb 8f f5 bd 1a ea eb bd b4 c9 e9 bd bb f4 e2 bd
       -0.11990305 -0.11519261 -0.11415425 -0.11081835
0003b0 f7 ed 4c 3c 74 24 8a 3d c7 b6 ac 3d 66 88 3f bd
       0.012507907 0.06745234 0.084332995 -0.04676094
0003c0 d9 1a af bb f8 26 cd bc d1 d4 b4 3d bf 3e 03 be
       -0.0053437767 -0.025042996 0.08829654 -0.12816904
0003d0 9e 20 82 bd 6f 70 11 be aa 8a 8e 3d 80 e1 e9 3c
       -0.063538775 -0.14203046 0.06960042 0.02854991
0003e0 57 bf 9e 3c 5c 89 99 bd 96 84 32 bd 0a 62 b1 3c
       0.019378347 -0.07496902 -0.043583475 0.021653194
0003f0 a5 68 d2 bd 6b 60 d6 bd 25 40 45 bd f5 5f d8 bd
       -0.102738656 -0.10467609 -0.048156876 -0.10565177

conv2.bias f4 [16]
000000 ed 69 de bd 2e 12 b6 bc 7a 6e 95 3d 47 2e 15 3e
       -0.108600475 -0.022225466 0.07296462 0.14568435
000010 ca 24 b6 3d 83 fd dd bd 68 36 a8 bd 3e 9d 48 3c
       0.08893736 -0.10839369 -0.08213502 0.012244521
000020 fd c1 79 3b 4f 21 27 3d 11 09 1c bd 3e 4b 85 bd
       0.003811001 0.04080325 -0.038094584 -0.06508492
000030 f9 8b d7 bd 98 81 eb 3b ad d4 fb 3d e3 c3 fa bd
       -0.105247445 0.0071870796 0.12296424 -0.12244394

conv3.weight f4 [32, 16, 3, 3]
000000 46 fa b5 3b 08 d7 b8 bd 93 f3 d6 3c 75 e9 a4 bd
       0.0055535166 -0.09025389 0.026239192 -0.08052341
000010 f7 0a 2f 3b d3 e9 af bb 81 85 97 bb 76 88 3d 3d
       0.0026709416 -0.00536845 -0.004624069 0.046272717
000020 43 b8 d6 3b 3e ee 74 bd c4 4b 15 bd 21 4c a7 3c
       0.0065527274 -0.059797518 -0.03644921 0.020422043
000030 b7 e0 af bc 70 8b 8c bc 5e 05 11 3d 8c e6 67 3c
       -0.021469457 -0.017156333 0.03540551 0.014154088
000040 f8 95 88 3d f1 f8 63 bd 54 43 b4 bc ae e2 53 3c
       0.06669229 -0.05565733 -0.02200476 0.012932463
000050 b6 89 c9 3a 0c 3c 77 3d d5 02 62 bc dc 50 9e bb
       0.0015376124 0.06036 -0.0137946205 -0.0048314165
000060 7e 04 bf bb 6e a8 2b bd 27 c4 0d 3d 30 05 0e bd
       -0.005829393 -0.041908674 0.034610894 -0.034672916
000070 fe 00 0a bd 76 4e d7 3c 07 2b 83 bc e6 7b be bd
       -0.033692352 0.02628253 -0.016011728 -0.093009755
000080 f1 c6 60 3d ed c3 75 bc fb 96 c8 bc 82 34 ba bc
       0.054877225 -0.015000326 -0.024486056 -0.022730116
000090 ca 69 ad bd e6 16 81 3d 9e 4c 01 b9 17 08 60 3d
       -0.08467443 0.06303196 -0.00012330941 0.054695215
0000a0 fc b1 62 bd a7 9a de bb b2 6c 31 3d ed 06 6c 3d
       -0.05534552 -0.0067933383 0.04331655 0.057623792
0000b0 21 95 98 bd 99 d5 51 3d db 8e ec 3c 6e 74 b4 bd
       -0.07450319 0.051229093 0.028876713 -0.0881127
0000c0 ae a4 80 bd 04 90 bd bc a9 80 7e bd 6d d9 99 bd
       -0.0628141 -0.023139961 -0.06213442 -0.07512174
0000d0 4d 9b 50 bd b3 81 be bc 41 23 30 bd ea 1b 77 bc
       -0.050929356 -0.023255205 -0.04300237 -0.015082339
0000e0 8d 7a a7 bd 30 16 aa bb 07 fe b3 bc 60 b4 ad bb
       -0.081776716 -0.0051906332 -0.021971716 -0.0053010434
0000f0 ad 23 4b 3d dd 52 b6 bc ba 18 0e 3d 6a 3d 42 bd
       0.04959457 -0.02225631 0.03469155 -0.04742185
000100 5e a1 33 bd 8b 65 8c b9 c6 fd 71 3d f8 4b 63 bd
       -0.043855064 -0.00026778536 0.059079908 -0.05549237
000110 f5 4d 0b 3d 04 a9 ca 3c 46 db b4 bd b6 08 8c 3d
       0.034009892 0.024738796 -0.088308856 0.06837599
000120 17 d7 3a 3d 22 ad ad 3c 8f 18 60 3c ea 04 8b 3c
       0.045615282 0.02120072 0.01367773 0.016970117
000130 2c 25 1a 3c 99 58 77 3d 53 3f 04 bd cd 11 62 3d
       0.0094082765 0.060387228 -0.032286953 0.055192757
000140 c6 2a 71 bd 03 98 03 3d 97 48 42 bd 9c b2 7f bd
       -0.058878683 0.03212739 -0.04743251 -0.062426195
000150 15 85 9c bd 0d 06 7e 3d 87 57 a8 bd b3 b4 9d bd
       -0.07642571 0.06201749 -0.082198195 -0.07700481
000160 9e b1 88 3b e1 25 d1 bb 88 8b 8b bd 6d 54 3c bd
       0.0041715642 -0.0063826893 -0.06813723 -0.045978952
000170 42 c7 9b bd cc 32 25 bc 4b ab 38 3c c4 91 b5 bd
       -0.07606365 -0.010082912 0.011271308 -0.08865693
000180 81 04 7e 3d 27 8a 74 3d 0d 53 d1 bc 34 e1 90 3d
       0.062016014 0.059702065 -0.025552297 0.07074204
000190 6c fc 55 3d 77 35 0b 3c 41 76 84 bc 5c 74 27 3d
       0.05224268 0.008496634 -0.01616967 0.040882453
0001a0 eb 43 dd b8 bb 66 8d 3d d8 5f 9a bd 24 fb a5 ba
       -0.00010550752 0.0690436 -0.07537812 -0.0012663347
0001b0 3b 52 7a 3d 2b 50 95 bd bb 31 71 bd 8b 31 af 3c
       0.061113577 -0.072906815 -0.058885317 0.021385929
0001c0 48 13 88 bd c0 7c 8f 3b 03 d8 0e 3d eb 7e 18 3c
       -0.066443026 0.004378885 0.034873974 0.009307603
0001d0 c0 e9 f1 3c e3 86 0e 3c 0a a3 9d bd d8 f4 0b 3d
       0.029530406 0.008699152 -0.07697113 0.034169048
0001e0 a1 9b 9c bc cc f2 81 bd 8f b0 c3 bd 10 6a 45 3c
       -0.019117178 -0.06345138 -0.0955516 0.012049213
0001f0 5d c7 b8 bd e3 7d 1a bd a9 ca 89 3d c6 e3 00 3d
       -0.090224005 -0.03771771 0.067281075 0.03146722
000200 26 72 5e bc 39 04 e9 3c 23 f4 49 bd 3b 22 f7 bc
       -0.01357702 0.028444396 -0.049305093 -0.03016769
000210 d2 ad a8 3b 81 50 8f bd 04 cc 22 bd 90 09 af bc
       0.005147674 -0.06997777 -0.039745346 -0.021366864
000220 8b ec 4a bc cb 4c dd bc c0 b6 d2 bb 56 82 bb 3a
       -0.012385498 -0.027014157 -0.006430477 0.0014305811
000230 8b 89 bf 3c 0b c9 6e 3c 96 18 e0 bb 0b 7c 57 3d
       0.023381015 0.0145743 -0.0068388684 0.05260853
000240 c9 d7 bd 3b 44 ad 1e bd 2d d2 90 bd 07 98 48 bc
       0.005793546 -0.038739458 -0.07071338 -0.012243277
000250 86 86 3e 3d cf a1 02 3d f1 01 1f 3c f2 92 b3 bc
       0.04651501 0.031892594 0.009705053 -0.021920655
000260 a1 2e 1e bd d0 0b fb bd a8 07 aa bd 56 79 11 bc
       -0.038618688 -0.122581124 -0.083022416 -0.008879026
000270 38 75 f3 bd b2 2d 61 be 34 a4 5b bd c8 b2 08 bd
       -0.11887592 -0.21990088 -0.053623393 -0.033373624
000280 de c0 b7 bd 5c 75 cf bd ac 30 04 3d 81 bd b8 3b
       -0.08972333 -0.101298064 0.03227298 0.005637825
000290 0d 90 dd bd ee 26 a4 bc a3 c3 d6 bd 3f db 98 bd
       -0.10818491 -0.020038094 -0.104865335 -0.07463693
0002a0 7c 4a 9e bd ba 28 05 be 34 c0 1a be 6f bd ab 3d
       -0.077290505 -0.13003817 -0.15112382 0.08385741
0002b0 1b 9d 9b 3d 1e e8 12 3e 75 b5 2e 3c 77 e1 1c 3e
       0.07598325 0.14346358 0.01066338 0.15320383
0002c0 73 93 fb 3d ea 1b 24 3d f7 c8 3b 3d f7 0c 08 bd
       0.12283983 0.040065683 0.045845952 -0.03321549
0002d0 7f 65 8e bd 17 9f b6 bd 93 ea 2d 3c 47 4e d8 bd
       -0.069529526 -0.08917063 0.010615009 -0.10561805
0002e0 db 06 b8 bc 13 e8 ea bb 12 d4 40 3c d4 b5 c4 bd
       -0.022464206 -0.0071687787 0.0117693115 -0.096049935
0002f0 28 cb a8 bd a2 83 d1 bd 0a 0b 32 be 85 82 ec bd
       -0.08241874 -0.10230185 -0.17387024 -0.11548332
000300 47 ec 18 bd de 13 ee bd 7a de 93 bd 2e c7 23 bd
       -0.037334707 -0.11624883 -0.072201684 -0.039984874
000310 c0 20 00 be 8b 05 f7 bd a4 7f c8 bd 85 dd 18 bd
       -0.12512493 -0.12061604 -0.097899705 -0.037320632
000320 a8 27 00 be a9 11 e6 bc 2e 88 fe bd 63 11 be 3c
       -0.12515128 -0.028084593 -0.12428318 0.02320165
000330 95 f5 0e bd 6d d3 34 be 55 2e 13 be 24 b9 ae 3c
       -0.034902174 -0.17658778 -0.14373143 0.021328516
000340 53 57 08 be 86 5d 95 bc 74 c4 b1 bd e8 c4 02 bd
       -0.13314562 -0.018233072 -0.086800486 -0.031926066
000350 ee 78 22 3b 9e 15 62 3d e3 33 ca bc 81 4f 43 bc
       0.0024791318 0.055196397 -0.024682945 -0.011920811
000360 ec f7 a0 bb 04 28 00 be 39 42 0e be 85 36 a3 bd
       -0.004912367 -0.12515265 -0.1389245 -0.07969383
000370 46 63 3f 3d 4a 96 4f 3d 82 0c 9e bd 00 03 72 3c
       0.046725534 0.050680436 -0.077172294 0.014771223
000380 e6 b4 6d 3d 25 eb 8c bd ed a2 03 bd 67 2b 34 bd
       0.058033846 -0.06880788 -0.0321378 -0.043986704
000390 c6 15 1d be 3e 79 ed bd 99 1a 88 bd b6 68 ed bd
       -0.15340337 -0.11595391 -0.06645698 -0.11592238
0003a0 d0 00 51 be 14 bc 12 bd ac 0f d5 bc b4 44 d6 3c
       -0.20410466 -0.035823897 -0.02600845 0.026155807
0003b0 f3 7c be bd a7 8a 0d 3d 6c 51 41 bd 16 27 4c 3d
       -0.09301176 0.034556057 -0.04719679 0.049841963
0003c0 8b 30 88 bd 9e 89 93 3d b4 e8 47 bd 07 ba 26 3a
       -0.06649884 0.07203983 -0.048805907 0.00063601177
0003d0 e6 59 98 bd ee f3 29 be ca 5b d5 bd 9a 3b 24 be
       -0.07439022 -0.16596958 -0.10417898 -0.16038361
0003e0 d1 4a 19 be 8c 33 ee bd b0 29 6c be 0c 8a 5f be
       -0.14969946 -0.116309255 -0.23062778 -0.21830004
0003f0 b5 d7 05 be a1 69 ae bd ce da bf bd 20 a0 f5 bd
       -0.13070567 -0.08516241 -0.093679056 -0.11993432

conv3.bias f4 [32]
000000 fb 9c b0 bd fb 8a ad 3d 00 c7 9e bb 5d d3 ac bc
       -0.08623692 0.08473774 -0.0048455 -0.02109688
000010 5b 6f 52 3d 78 90 a6 3d 3f cb b1 bb 56 11 86 3b
       0.051375728 0.08133024 -0.00542584 0.004091422
000020 f2 94 58 bd 39 cc 89 bd 3d 1b ad 3a 53 dc 93 bd
       -0.05287642 -0.067284055 0.001320697 -0.07219758
000030 12 4d a4 bd 6d e7 23 3d f1 ee 8f bd b6 b3 b8 3d
       -0.080225125 0.040015627 -0.07027996 0.09018652
000040 41 93 d0 bd 56 9a 62 3d 25 79 11 3d e9 d3 41 bd
       -0.101843365 0.055322967 0.035515923 -0.047321234
000050 47 57 60 bd 70 e5 bd 36 16 70 da bc d8 4b 01 bd
       -0.054770734 5.659349e-06 -0.026664775 -0.03156647
000060 5c 8d 50 bc 08 11 22 3d d3 93 c2 3b 78 0f 3b 3d
       -0.012729015 0.039567024 0.005938032 0.04566905
000070 b8 64 13 bd f6 38 93 bd bc 7e 81 bd 9d 9b 7a 3d
       -0.035984725 -0.07188599 -0.06323001 0.06118356

conv4.weight f4 [64, 32, 3, 3]
000000 da 50 1f bd 63 72 4f 3b a0 07 50 bc 7e 0e 09 bd
       -0.038895465 0.0031653873 -0.01269713 -0.033461086
000010 a4 67 d5 bc 01 64 16 3d 29 7c 84 39 df a5 eb 3c
       -0.026050396 0.036716465 0.00025269508 0.028765617
000020 cd 8e 21 3c 66 a0 20 bd 57 c1 8d bc 23 6e b8 3c
       0.0098607065 -0.039215468 -0.017304106 0.022513455
000030 d7 99 23 bd 09 e6 a7 3c b3 54 a9 3c 5f a3 2c bc
       -0.039941635 0.020495431 0.02067027 -0.010536998
000040 14 a5 8b 3c 47 c9 47 bc e2 03 bf 3c 48 d9 9b bb
       0.017046489 -0.012193984 0.023317281 -0.0047561266
000050 9a 13 36 b9 97 58 58 bc f9 f8 fa bc e0 8f 1c bd
       -0.00017364175 -0.013204715 -0.030636298 -0.038223147
000060 75 36 c9 3c 75 d7 95 3d fa 55 9a 3d 91 08 84 3c
       0.0245621 0.07316486 0.0753593 0.016117366
000070 f9 0c 29 bd d8 b4 a8 3d 82 46 70 bc 84 3d ac bd
       -0.041272137 0.08237618 -0.014665248 -0.08410171
000080 cc 4d 88 3d 0f 3e 28 3d 7c c1 79 3d b5 26 72 3d
       0.066554636 0.04107481 0.060975537 0.059118945
000090 06 4c 2e bd 01 c4 ab bc 66 c6 1a 3d f8 a0 5e bd
       -0.04255297 -0.020967485 0.037786864 -0.05435273
0000a0 60 ec 55 3c d4 26 04 3d 81 a2 dc bc 6e 83 1b 3d
       0.0130568445 0.032263592 -0.026932957 0.037967138
0000b0 f2 7b 82 bd e9 ef 02 bd d4 d6 ee ba 6d 04 35 3c
       -0.06371297 -0.031967077 -0.0018221983 0.0110484185
0000c0 7a 7d 6b 3d 99 39 82 3d b5 c6 10 3d 54 24 35 bd
       0.05749271 0.06358642 0.03534575 -0.0442241
0000d0 67 3e 42 3d 69 a0 2e bd 09 01 19 bc 3e 95 30 3d
       0.047422793 -0.042633448 -0.009338626 0.04311108
0000e0 da 2b a9 3c be 6b 9e 3c 21 d7 a6 bc f9 3a 67 bc
       0.020650793 0.019338485 -0.020366253 -0.014113181
0000f0 40 0d 22 3d c7 1a 9e 3d fe ca c8 3d 78 4e 63 3d
       0.039563417 0.07719951 0.09804343 0.055494756
000100 22 04 7e 3d 29 c5 9c 3d 55 ff 46 bd 55 7f 88 bd
       0.06201566 0.07654793 -0.048583347 -0.06664912
000110 a8 95 b8 3c c8 c4 37 3b 4c d6 26 bc ed 74 b7 3c
       0.0225323 0.0028040875 -0.010182928 0.022394622
000120 f7 80 92 3d 6d 28 3a 3d f3 da 42 3d d1 b3 93 bc
       0.07153504 0.04544871 0.047572087 -0.01803008
000130 f9 18 04 bd 0c 34 14 3d f1 66 83 3a d1 a7 87 3d
       -0.03225038 0.03618245 0.0010025186 0.06623805
000140 e6 d2 c3 3c 90 a4 0a bd 69 da 1d bc 65 f8 ba 3c
       0.023904275 -0.033848345 -0.009634593 0.022823522
000150 eb f3 90 bc 65 ae c1 bc 28 97 8f 3b 1a fe b9 3c
       -0.017694434 -0.023642728 0.004382033 0.022704173
000160 1f 6e f3 3c af 35 de bb 05 de 17 3d 15 6b 2e 3d
       0.029715596 -0.006781302 0.03707697 0.04258259
000170 56 d5 10 3d 47 27 80 3b 0b fd d9 bb 2e a3 cf bc
       0.035359703 0.003910932 -0.0066524795 -0.025346365
000180 43 91 77 3d 5f db fd 3b a2 75 07 bc a4 89 74 3b
       0.060441267 0.0077470983 -0.008267792 0.0037313486
000190 9a 2e 21 bd 9f 95 19 3d da 87 9a 3d 6f 55 1d 3b
       -0.039351083 0.037496205 0.07545443 0.0024007221
0001a0 ef 38 fc 3b f5 f4 45 3d 5a d6 27 bd 76 da 69 3d
       0.0076972167 0.048329312 -0.040975906 0.057093106
0001b0 6c 66 3b bd d5 83 6f bd ec ae 95 bb 3c e8 4b bd
       -0.045751974 -0.058475334 -0.0045679715 -0.049782023
0001c0 6c fb c8 bc e8 fa 6f bd 5a 44 a0 3c 66 e6 e7 bc
       -0.02453395 -0.058588892 0.019563843 -0.028308105
0001d0 09 5a 98 3c cb e3 60 3d 56 3e 8d 3d f7 0d 9b 3c
       0.01859762 0.05490474 0.06896655 0.018927557
0001e0 82 74 da b7 2a 68 aa bc 92 04 7b 3d ec 6c c8 bb
       -2.6041878e-05 -0.020801622 0.061283655 -0.0061165
0001f0 72 56 3d 3d 92 5d c1 3c 7e 78 9a 3d 24 1f e9 bc
       0.04622502 0.023604188 0.07542513 -0.028457232
000200 7e 81 0d bd f0 77 35 bd e7 76 53 bd c1 9e 7b 3c
       -0.03454732 -0.044303834 -0.051627066 0.015357674
000210 be 04 2f 3d 05 11 80 bc c8 42 47 3c b2 43 2c bc
       0.042729132 -0.015633116 0.012161918 -0.010514187
000220 de 5d 4c 3d db 83 43 bb 37 af 6d 3c 34 a8 2a 3c
       0.049894206 -0.002983323 0.0145071065 0.010416079
000230 fd 2e 09 bd db 74 9c bd 99 56 f4 bc 2c bb 6f bc
       -0.033492077 -0.07639476 -0.02982645 -0.014632028
000240 c3 2e a3 3d 74 11 a4 3d 25 d6 6b 3d 06 9f 14 3d
       0.079679035 0.080111414 0.05757727 0.03628447
000250 e7 c9 02 3d de 08 60 bd ab f3 7d 3d e1 1a 31 bd
       0.03193083 -0.054695956 0.061999958 -0.043238524
000260 cb 9e 90 ba 68 1f 3a 3c c8 33 40 3c 5c 37 90 bc
       -0.0011033652 0.011360027 0.011731096 -0.017604522
000270 54 ee 6f 3d 31 12 a7 ba c3 04 00 bd cf 7e 3e 3c
       0.058576897 -0.001274651 -0.03125454 0.011626913
000280 8f 3b 42 bd 17 3d 79 bd 01 b5 12 3d fd 65 a9 3d
       -0.04742008 -0.060849275 0.03581715 0.08271406
000290 ac 4c 51 3d 20 4b 47 bd 36 19 5a 3d c6 60 13 3c
       0.05109851 -0.04865563 0.0532467 0.008995241
0002a0 c0 f5 58 bd a6 f6 73 bb 2d 1a 71 bd df 2b b8 3c
       -0.05296874 -0.0037225871 -0.058862854 0.022481857
0002b0 3e 96 89 3d a6 58 27 3d b2 84 6c 3d 8d 85 2f bd
       0.067181095 0.040856026 0.057743736 -0.042851973
0002c0 81 10 dd bb ea 05 ae 3c c2 75 6a bc e5 47 92 3c
       -0.006746352 0.021243054 -0.014310302 0.017856548
0002d0 6c dc b2 bc f6 88 38 bd b5 f5 7d 3d b1 ca 38 3d
       -0.021833621 -0.04505249 0.062001903 0.045115177
0002e0 fe 99 4d bd fc 11 b7 bc cc 80 b1 3d 36 e5 b3 3b
       -0.050195687 -0.022347443 0.08667144 0.0054899706
0002f0 2a 68 d7 3d d2 99 2c 3e 09 f5 41 3d 3d ab d2 3d
       0.105179146 0.16855553 0.047352824 0.10286567
000300 10 b2 2b 3e 3d 98 82 3d 29 a1 8c 3d 96 97 25 3e
       0.16767144 0.063766934 0.06866676 0.16171107
000310 bf 67 83 3d 55 b5 48 3d 1f 15 50 3d d2 a0 46 3d
       0.06416272 0.049001057 0.050801393 0.048493214
000320 d7 b9 15 3b 1e df fd 3c 52 fd 05 3d 1b 47 7b bd
       0.0022846365 0.03099018 0.03271229 -0.06134711
000330 56 68 2f bd 68 52 6d bd b4 24 2e bd 74 39 3a 3d
       -0.042824112 -0.057939917 -0.04251547 0.045464948
000340 6c c2 d4 3c d6 98 c1 bc cf da 08 3b 7b 2b b7 bc
       0.025971614 -0.023632448 0.0020882373 -0.0223596
000350 e8 5a e2 38 21 2a 8d 3c 3f 61 8f 3d 50 77 b6 3d
       0.000107934524 0.017232003 0.0700097 0.08909476
000360 ac dc 9d bc 0d 69 b8 3c 2a c4 6c 3d 2a b4 5f 3d
       -0.019270264 0.02251103 0.057804264 0.054615177
000370 ff 83 8f b9 f8 fc f1 bc af d6 48 3c 29 25 32 3d
       -0.0002737343 -0.02953957 0.012258216 0.04349247
000380 4b 7c 8d bc 9b 44 b2 bc 79 83 be 3c 3a 23 b3 b7
       -0.017271182 -0.02176123 0.02325605 -2.1354866e-05
000390 56 18 77 bd 21 e2 88 bd 05 dc 55 bd 5c bb b6 bc
       -0.060325943 -0.06683756 -0.05221178 -0.022306137
0003a0 1e 26 dd bc ca c5 9b bc a1 94 c7 3c 4c df 58 3d
       -0.026995715 -0.019015212 0.024362864 0.052947327
0003b0 97 5b 84 3d c7 07 11 bd a7 2d 4a 3b b3 c9 09 3c
       0.06462782 -0.035407808 0.0030849965 0.008409905
0003c0 b3 c0 6f 3d 14 ba 45 bc 53 6e 75 3b a1 b5 7f 3d
       0.05853338 -0.01206829 0.0037449792 0.062429074
0003d0 89 5d 3b 3d df c2 b6 bc db 87 8a 3d a7 d8 95 bc
       0.0457435 -0.022309719 0.067641936 -0.018291784
0003e0 0e a4 90 3d 2d b6 ac 3d 10 5d d8 3b 00 f9 90 3d
       0.07062541 0.08433185 0.006602891 0.07078743
0003f0 b7 d6 5a 3d b6 d5 8d bd 7c cb af bc 35 6d 6a 3d
       0.053427424 -0.06925528 -0.021459334 0.057233054

conv4.bias f4 [64]
000000 2a 92 51 bd 33 67 76 bc c3 8f 36 3d b4 db 56 bd
       -0.051164784 -0.015039253 0.044570696 -0.05245562
000010 03 fd 99 3c 8d 06 4f bd dd ba 89 bd 06 62 26 bd
       0.018797403 -0.050543357 -0.067250945 -0.040620826
000020 e5 39 9a 3d 4f 9c 44 3d c2 97 65 bd bc 64 18 3d
       0.07530574 0.04800063 -0.05605293 0.037205443
000030 f6 0b bd bc 0f e4 56 3d e7 e4 8b bd 4f c9 14 bd
       -0.023076992 0.052463587 -0.06830769 -0.036324795
000040 12 39 b4 3d 84 01 85 3c 41 55 0b 3d a8 9d 02 3d
       0.08799948 0.016236074 0.03401685 0.031888634
000050 3b 49 ba 3a f4 d1 14 3d af 68 0c 3d fc bf 0d 3d
       0.0014212498 0.03633304 0.03427952 0.03460692
000060 9d ab 42 3d ad df 60 bd 71 35 88 3b 0a 15 2d 3c
       0.047526944 -0.054900814 0.0041567613 0.010564098
000070 74 6c 1a bd 5e 6b ad bc c8 11 bf 3c 50 01 f6 3c
       -0.037701085 -0.02116936 0.023323908 0.030029923
000080 fe 3b 10 3d 2f 96 b7 bc 83 25 24 3c 27 41 c7 3c
       0.035213463 -0.02241048 0.010018709 0.02432306
000090 5a 3a 0e bd 12 8e 8d bb 5c ec a9 3d e3 3a ce 3c
       -0.034723617 -0.0043199146 0.08297035 0.025174564
0000a0 9c 9a 5b bb 9a e3 3f bd 79 f7 98 3d 28 8d 58 bd
       -0.0033508902 -0.046847917 0.07469077 -0.052868992
0000b0 a6 7b a7 3c 8b e3 85 bb 4f 6a 2b bd c8 52 5c bd
       0.020444702 -0.004085963 -0.04184943 -0.053789884
0000c0 61 2b 14 bd d1 cc 8d bd ec df 53 bd d9 42 f5 bb
       -0.03617418 -0.06923831 -0.05172722 -0.0074847755
0000d0 df 21 7f bd a3 ac fd bc c6 45 47 bd 66 a2 19 3d
       -0.06228816 -0.030966109 -0.048650526 0.03750839
0000e0 97 0a 03 3d fb df 83 bb 8d 31 10 bc 0f d9 41 bd
       0.03199252 -0.0040245033 -0.008800876 -0.047326144
0000f0 e4 08 20 3d be bf 8b 3b ac 8b 76 3c 55 bf 35 bd
       0.03907098 0.004264801 0.015047949 -0.04437192

fc1.weight f4 [100, 1024]
000000 01 52 39 3d 67 cf 9b bc 41 1b 4c bc 70 06 28 3d
       0.04524422 -0.019019796 -0.01245767 0.041021764
000010 cc 20 21 bd 6f 24 30 bd 07 9b 2e bc 0d f4 10 bd
       -0.03933792 -0.043003496 -0.010657079 -0.035388995
000020 fd 1c 8a bc 34 4f 3d bd 4b 9f e7 bc f1 cd 9e 3c
       -0.016859526 -0.046218112 -0.028274199 0.01938531
000030 36 b2 f4 3c 70 94 dd bc 0f 06 0a bd 53 bb 33 3d
       0.029870134 -0.02704832 -0.033697184 0.04387982
000040 62 f9 b1 bc 96 72 6e bc 5b 2d 73 3c 12 47 c9 bc
       -0.02172536 -0.014553687 0.014842357 -0.024570022
000050 7f 52 dd 3c 9b e1 ab 3c 50 a2 c9 3a 46 ee f8 3b
       0.027016876 0.0209816 0.0015383456 0.007596764
000060 c1 f9 80 bc 23 c3 05 bd d2 9f 25 bc fc eb b4 3c
       -0.015744092 -0.0326568 -0.010108905 0.022085182
000070 ac 8b 16 bc 8c a8 82 b9 77 f3 07 3d fe ee e8 3c
       -0.009188574 -0.0002492111 0.03319117 0.028434273
000080 5e 69 6a 3d e9 12 a2 3b 7e 35 ba bb 28 65 4d 3c
       0.057229392 0.004946102 -0.0056826463 0.012536325
000090 27 00 98 3c 23 63 f4 3b 28 53 76 bc 8a e7 e2 3b
       0.01855476 0.007458107 -0.015034474 0.0069245743
0000a0 ca 07 ed 3c d2 d3 a4 bc 1a 12 a2 3c ca 6f 8a 3b
       0.028934378 -0.020120535 0.019784022 0.004224752
0000b0 50 d2 66 3d 54 d3 09 3c ea 24 de 3c fc a2 e6 3c
       0.056352913 0.008412201 0.027117211 0.028153889
0000c0 98 6a 78 3d fc a4 ac 3c d5 c3 cd 3c db 6d 8a 3d
       0.06064853 0.021074764 0.025117794 0.067592345
0000d0 77 ce 18 bc 7d 2c 04 bd 38 4e 53 3c fc 34 be 3b
       -0.009326569 -0.03226899 0.012897067 0.005804656
0000e0 3e db 7b bc a9 f5 3d 3c 47 22 06 3c c4 3c 34 bc
       -0.015372096 0.0115942145 0.008186883 -0.011000816
0000f0 bb d8 de 3a a1 bf b6 3c c8 fd ce 3c 1d c2 5f 3c
       0.0017001847 0.022308173 0.025267497 0.01365712
000100 49 78 8d 3d 2e 4d 9a bc 50 88 d7 3c 47 89 68 3d
       0.06907708 -0.01883563 0.026310116 0.056771543
000110 7e b3 2c b9 b8 fa 9f bc b2 04 04 bd c5 fa c3 bb
       -0.00016470064 -0.019528732 -0.03223104 -0.005980822
000120 e8 f8 bc 3b 35 aa e3 bb e3 d5 d8 3c ca 34 22 3d
       0.0057669766 -0.0069477805 0.026469177 0.039601125
000130 ee 92 11 3d 84 86 dc 3b 2b 4c 2b 3c b2 45 00 3d
       0.035540514 0.0067299027 0.010455172 0.031316467
000140 36 19 c9 3c 55 6e 1b bb 04 ac 98 3c a4 76 06 bc
       0.024548154 -0.0023716886 0.018636711 -0.008206997
000150 37 84 f9 bb 38 3e f3 3c b5 b1 ba 3c 3c ef 55 bc
       -0.007614638 0.029692754 0.022789815 -0.013057526
000160 89 f8 7d bc c9 06 eb 3c e4 10 5a 3c 26 8b 47 bc
       -0.01550115 0.028689759 0.013309691 -0.012179172
000170 cb aa 10 bb 8f 7c 5a 3b 30 b5 92 bc e4 b7 fb 3a
       -0.0022074457 0.0033338403 -0.017908663 0.0019204584
000180 e4 50 7e 3c f8 42 a7 3b 30 f1 51 3b 80 59 33 3c
       0.0155222155 0.005104419 0.0032034628 0.010946631
000190 14 20 31 bc 96 cc e3 bc 40 d2 ee 3b 10 e3 da bb
       -0.010810871 -0.027807515 0.0072882473 -0.0066799
0001a0 44 4c fe 3c 98 6b 2d 3c 96 c1 95 3c ae ba 8a 3c
       0.031042226 0.010584734 0.018280786 0.016934719
0001b0 58 e1 45 bc 40 06 4c bc 40 46 39 bb 7e c1 e4 bc
       -0.012077652 -0.012452662 -0.0028270632 -0.027924296
0001c0 1e b3 45 3c 46 b6 26 3c 8b a5 32 bb d0 c5 50 bc
       0.012066631 0.010175293 -0.0027259316 -0.012742475
0001d0 74 c5 4e bb 8f f9 bc 3c 91 12 e6 bc 22 92 cd bc
       -0.0031550797 0.023068218 -0.028085025 -0.025094096
0001e0 bd bd 40 bc 36 11 43 bc c9 68 44 b9 d4 73 f8 bc
       -0.011763987 -0.011905959 -0.00018731052 -0.030328669
0001f0 b2 ee 57 bc b5 12 c9 bc 7b 21 30 bc 86 3b 15 3d
       -0.013179468 -0.024545053 -0.01075017 0.03643372
000200 c3 9a 6a 3e bc 2b 58 3e cc 57 6d 3e a3 a3 07 3e
       0.229106 0.21110433 0.23178023 0.13246016
000210 a7 d6 70 3e 99 d0 58 3e f0 fd 2f 3e 46 de e7 3d
       0.23519383 0.21173324 0.17186713 0.11321692
000220 6c 6c 37 3e 12 50 0a 3e 1c ca 3f 3e ea 54 10 3e
       0.17912453 0.13507107 0.18729442 0.14094892
000230 c5 0b 69 3e fe 5e 0d 3e 7c 7f 1d 3e 43 48 20 3e
       0.22758396 0.13805768 0.15380663 0.15652566
000240 80 8d 9e bc e1 53 8a bc ea 4d 17 bb 63 aa 96 3c
       -0.019354582 -0.0168857 -0.0023087212 0.018391794
000250 a4 3f 3e bc 30 9f b0 3c 84 48 03 3d 09 b0 5b bd
       -0.011611853 0.021560282 0.03205158 -0.053634677
000260 7d 2f e2 bc 79 8e df 3c 2f 71 15 3c 74 8b fb bc
       -0.027610535 0.027289616 0.009121223 -0.030706145
000270 5c 25 55 bd 9e 22 73 3b e9 c8 cd ba dc 35 b0 3b
       -0.05203758 0.003709949 -0.0015700135 0.0053775143
000280 47 85 35 3d 80 67 69 bc 9b 07 46 3b 56 5c 20 3d
       0.044316556 -0.014245868 0.0030216936 0.03915056
000290 97 1e 1e bc 59 d0 fa bc a1 6a 8b 3c 4a b1 3b bc
       -0.009650848 -0.030616926 0.017018618 -0.011455843
0002a0 52 66 9d bc d4 2d 84 3b 65 58 35 ba 28 a4 02 3d
       -0.01921383 0.0040337835 -0.0006917774 0.031894833
0002b0 eb 5d 9a 3c fa 97 8e 3c ce b7 8a bb 60 fe 60 3d
       0.018843612 0.017406452 -0.004233337 0.05493009
0002c0 64 fb 7e 3d 16 18 f5 bc 6a e7 6a 3c 84 c3 0d 3a
       0.062251464 -0.029918712 0.0143374 0.0005407857
0002d0 a0 82 63 bc 9f 5d 9b bc cb b6 02 bd d9 f6 65 39
       -0.013886124 -0.01896554 -0.031912606 0.000219311
0002e0 3b 9f ea bc 6c 3e 47 bd 82 05 e4 3b a1 22 89 bc
       -0.02864038 -0.048643515 0.0069586644 -0.016740145
0002f0 e5 79 20 3d a5 9c 13 bd f7 80 61 bb 70 84 8d 3b
       0.039178748 -0.03603806 -0.0034409144 0.0043187663
000300 8c b0 a2 3c b8 e8 94 bc be c4 92 bc 6b 22 b7 3c
       0.019859575 -0.018177375 -0.01791608 0.022355279
000310 ab b5 08 3c d0 55 0c bd 19 e1 00 bc 29 02 e6 3b
       0.008344094 -0.034261525 -0.007866167 0.0070193005
000320 01 22 27 3c 14 02 0a 3a d9 0b 16 3c 31 89 34 bc
       0.010200978 0.0005264592 0.009158098 -0.011019037
000330 d3 16 89 3c b8 e9 da bb 2f a3 a8 3c d5 aa 22 bc
       0.016734516 -0.0066806935 0.020585625 -0.009928425
000340 64 1e f5 bd 6c 81 5f bd ae 63 a2 bd 68 82 f7 bd
       -0.11968687 -0.054566786 -0.07929169 -0.1208542
000350 94 57 e6 bc fb f7 b6 bc 51 e2 82 3c ec f1 49 bc
       -0.028117932 -0.022335043 0.015977057 -0.012325745
000360 1d 29 23 bd 0b 86 14 bd ba 1b bc 3a 28 6f 71 bd
       -0.03983413 -0.036260646 0.0014351525 -0.058943897
000370 25 64 94 bd d4 8b 95 3c 02 1c 45 3c 1f 75 3a bd
       -0.072456636 0.018255152 0.012030603 -0.04552185
000380 ea 90 fc bc e8 5b de 3c 48 0b 6f 3c 44 e9 a5 bc
       -0.03083082 0.027143434 0.014590092 -0.020252831
000390 cc 11 70 3c 80 bd d9 39 00 10 f5 3c e4 5e a5 3c
       0.014652681 0.00041530654 0.029914856 0.020186849
0003a0 0e 21 9b 3c 9a fa 80 bc 5c 19 aa 3c a4 64 aa bc
       0.01893666 -0.015744496 0.020764045 -0.020799942
0003b0 78 26 dc bb 20 ed d4 bb 04 00 47 3c b2 3c cb 3c
       -0.006718453 -0.006497994 0.012146 0.024809215
0003c0 8c f1 a4 3c ac 38 db bb 71 ec 40 3a 20 b0 1f 3c
       0.02013471 -0.0066901054 0.0007359451 0.009746581
0003d0 07 7e cd 3a d0 6d e7 bc 59 f3 fb 3c 3d 95 33 3d
       0.0015677818 -0.028250605 0.030755686 0.043843497
0003e0 b9 bc a9 bc 8f f0 83 3b 33 e6 5a 3c 87 0a e4 3c
       -0.020719873 0.0040264796 0.013360548 0.027837051
0003f0 83 74 78 3c 68 77 e7 3c 9d ee 38 bc bb f6 35 3c
       0.015164497 0.02825518 -0.011287359 0.011106188

fc1.bias f4 [100]
000000 1b c5 4e 3d e7 99 f1 bb 1d 20 8b 3c 8b 0b 0f bd
       0.050480943 -0.007373083 0.016983086 -0.034923118
000010 54 13 9f bc 8d bd c8 bc 9f 70 81 3d 86 83 7d 3d
       -0.019418396 -0.024504447 0.06320309 0.06189301
000020 8d e1 61 3c 71 9d 50 3c 97 0f 99 bc 53 18 cc bc
       0.013786686 0.012732849 -0.018684192 -0.024913942
000030 f3 ec 65 bc 4b a2 c2 3c d6 b4 61 3d 44 22 7a 3d
       -0.014033544 0.023759028 0.0551041 0.061067834
000040 a6 43 5c bb 5b af ff bc 28 dc fe 3c 0f 71 04 bd
       -0.0033609658 -0.031211546 0.031110838 -0.032334384
000050 8f d1 9c 3b e6 89 12 bd 1a 27 18 3d ca e0 c2 bb
       0.0047857235 -0.03577604 0.037146665 -0.005947207
000060 7c f1 98 39 d7 1a 25 3d 5b 50 bd bc d8 e5 e3 bc
       0.0002917162 0.0403088 -0.023109606 -0.027819559
000070 a3 b4 ad 3c d5 a2 1b 3c 32 7b 6d 3d e9 5c 01 3c
       0.021204298 0.009499271 0.057978816 0.007895687
000080 0f 0c 1e 3d 5e fb dc ba 10 48 48 3d 22 37 93 bb
       0.03858572 -0.0016859581 0.04889685 -0.0044926563
000090 3e ad 16 bd 35 9d 98 3b 14 46 88 3d a3 8e 99 3c
       -0.03678631 0.0046574124 0.06653991 0.018744772
0000a0 f9 62 01 bd 47 91 95 3d ed a0 20 3d 9f c9 37 3d
       -0.03158853 0.073031 0.03921597 0.044870015
0000b0 5c 6c e1 bc 5d ed ab bc 1a de 22 3c 8e 16 0c bd
       -0.02751749 -0.020987207 0.009940648 -0.034201197
0000c0 73 06 ac bb bb 2b 5c 3d 09 73 db bb 17 4c 42 3d
       -0.0052497922 0.053752642 -0.006697063 0.047435846
0000d0 00 df c2 bc 9e 9f e2 3c 72 0e 32 3c 7b 81 09 bd
       -0.023787975 0.027664002 0.010867702 -0.033570748
0000e0 43 ed 6d bc e4 84 9e 3c 06 5e 17 3d a9 24 1d 3d
       -0.0145219 0.019350477 0.036954902 0.03836504
0000f0 06 d4 c0 bc 97 31 03 bd 60 f1 81 bb cd fb db 3c
       -0.0235386 -0.032029714 -0.0039655417 0.026853466
000100 6b 29 96 3b 22 16 bb 3c 4b a5 9b bc c9 83 55 3c
       0.004582574 0.022837702 -0.018999716 0.013031908
000110 bb af b6 3c 42 44 80 bc 74 68 14 bc f4 7f bb bc
       0.022300592 -0.015657548 -0.009058107 -0.022888161
000120 31 82 02 bd db 2c 37 3b 8e e0 12 3d ca a6 36 3c
       -0.03186244 0.002795032 0.035858683 0.011148164
000130 7e 05 f2 bb 60 1e cb 3c f3 88 0c 3c 3a ff ea 3c
       -0.0073859086 0.024794757 0.008577573 0.028686155
000140 22 61 4e 3c 7f e7 dd 3c 14 82 4f 3d 61 10 66 bc
       0.0125964 0.027087925 0.05066116 -0.014041991
000150 99 42 6a 3d da f0 9e bb 3f 10 83 3c 20 e4 13 bd
       0.05719242 -0.004850489 0.015998958 -0.03610623
000160 4d e5 fb bc 12 d8 82 3d 3b ec d8 3c b2 f5 62 3c
       -0.030748988 0.063888684 0.026479831 0.013852524
000170 a7 91 b9 3c dc 25 fa 3b 10 13 c2 bb 17 a4 72 bb
       0.02265246 0.0076339077 -0.0059226826 -0.0037024075
000180 5c 21 07 bc 1a f2 84 3d f4 bc cc bc c3 db bc bc
       -0.0082477 0.0649149 -0.024992444 -0.02305401

fc2.weight f4 [2, 100]
000000 a0 bb e6 3d 32 2f 89 bd bc 00 47 bd 36 79 0a 3d
       0.112662554 -0.06698455 -0.048584685 0.033807002
000010 f4 9c 32 bd 1d 80 0a 3d 33 25 63 be 12 10 57 3d
       -0.043606713 0.033813585 -0.22182159 0.05250556
000020 24 be 17 be a4 66 cd 3d 2b c0 36 bd 7d b8 78 3d
       -0.14818627 0.10029343 -0.04461686 0.060722817
000030 b1 61 d7 bd e0 fc 9d bd 87 f5 84 3c a4 38 1e be
       -0.1051668 -0.07714248 0.016230358 -0.15451294
000040 1f ce a1 3d 65 e3 a6 3d 35 99 ba 3c 66 3d a8 bd
       0.079006426 0.08148841 0.022778133 -0.08214836
000050 e9 a3 83 3d 8b 11 a0 3d c8 40 24 be dc 6b 23 bd
       0.06427748 0.07815846 -0.16040337 -0.039897785
000060 03 02 4d bd 62 77 89 3d 64 36 86 bd 00 f3 95 bd
       -0.050050747 0.067122236 -0.06553343 -0.07321739
000070 80 ab b1 3d 7e 02 08 3c 0c 41 05 3e 23 b3 84 3d
       0.08675289 0.008301375 0.13013095 0.0647948
000080 00 0e af bd 3b 19 57 bd 3d 6b 2b 3d 9c 76 6e 3e
       -0.08547592 -0.052514296 0.041850317 0.23287433
000090 e2 bb 8d bb b3 b1 1f 3e 32 36 21 3e 3a f8 15 bd
       -0.004325376 0.1559513 0.1574333 -0.03661368
0000a0 42 1c 81 3b 20 0d 2d 3e a2 87 88 3d 26 a7 19 3e
       0.003940136 0.16899538 0.06666495 0.15005168
0000b0 50 5f a1 3c cd 88 b6 bb 30 6e 0b bb 0e 06 d6 bc
       0.019698769 -0.005570507 -0.0021275394 -0.026125934
0000c0 99 4f bf bc 3d 7c 1e 3e 13 58 9d bd 29 a1 ab bd
       -0.023353385 0.1547708 -0.076828144 -0.08380348
0000d0 ec 27 b7 bc 43 54 65 3e 32 d3 17 3d db ed 95 bd
       -0.022357903 0.22395425 0.037066646 -0.07320758
0000e0 1b 8f 95 bd 42 e5 59 3c cc c1 70 3c 52 d9 57 3e
       -0.07302686 0.013299288 0.014694642 0.21078995
0000f0 22 86 99 3d 43 fd c4 bd 9a c1 32 bd db 95 60 3d
       0.07496287 -0.09618618 -0.043641664 0.054830413
000100 0b df 35 3e fa 93 24 3e 2c c2 88 bd 52 99 dd bb
       0.17760865 0.16072074 -0.0667766 -0.006762662
000110 4f 89 27 be 3f f9 bf 3d be 50 b8 bd 43 81 4d bd
       -0.16360973 0.09373712 -0.08999775 -0.0501721
000120 82 62 af bd 0d b7 58 bb 9d 03 4e be 9b d2 63 bd
       -0.08563711 -0.003306809 -0.20118566 -0.05562077
000130 d8 78 52 3d 02 89 34 3e 35 e5 de bc 9b 34 70 3e
       0.051384777 0.1763039 -0.027208904 0.23457567
000140 78 7f 8d bd c7 b5 36 3e 52 71 08 3e 66 ff 70 3d
       -0.06909078 0.1784278 0.13324478 0.058837317
000150 03 26 4c be b7 ed 98 bc ca bf 8a bd 70 0e 4b 3d
       -0.19936375 -0.018668039 -0.06774862 0.049574316
000160 e4 f2 9e 3d e4 9b 1a be 4b b0 0a 3e c0 2c 31 3c
       0.077611715 -0.1509853 0.13543813 0.010813892
000170 96 b6 24 be 28 7e c8 3d 29 20 a0 bd 05 a6 4f bb
       -0.16085276 0.097896874 -0.07818634 -0.0031684649
000180 07 c5 1b bd 0d a0 88 3c 77 39 77 bd 86 17 43 bd
       -0.038029697 0.01667788 -0.060357537 -0.047629856
000190 84 ea a4 bd 83 02 98 3d c2 3d 58 3d ba ce 50 3d
       -0.08052543 0.07422354 0.05279327 0.0509784
0001a0 67 59 a7 bd be fa 2d 3c 74 b0 6a 3e 25 9a 9a bd
       -0.08171349 0.010618864 0.22918874 -0.07548932
0001b0 d1 e2 88 3c 2b 58 09 be c5 af 10 3e eb eb a5 3d
       0.016709717 -0.1341254 0.14129551 0.081016384
0001c0 ef aa 8f 3d a5 54 a8 bd 5f c3 b8 bd 90 5c ba 3d
       0.07015025 -0.0821927 -0.09021639 0.09099686
0001d0 b6 f7 8d bd af 7b 49 3d 14 90 f1 bd 2e f7 46 3d
       -0.06932013 0.04919022 -0.11795059 0.048575573
0001e0 d1 86 be bd df 00 9b 3d c7 0f b4 3d 52 64 09 3e
       -0.09303058 0.075685255 0.08792072 0.13417175
0001f0 86 04 b1 3c bf 64 bd bd 2c e4 8e bd a7 bc a0 3d
       0.021608602 -0.092477314 -0.06977114 0.078484826
000200 81 04 4e bd 49 d6 75 bd 6a ab 85 bd 81 ea 0e 3d
       -0.050297264 -0.06001881 -0.06526835 0.03489161
000210 0f 5e 5f 3e 36 58 13 bd 17 f4 e9 bd 55 50 01 be
       0.21813224 -0.035972796 -0.114235096 -0.126283
000220 69 26 5d bd 96 7a 1d be ed 62 d0 3c 09 64 1a 3e
       -0.05399171 -0.15378794 0.025437796 0.15077223
000230 39 80 c9 3c f5 e1 c1 3c fb d7 2b be 33 85 a1 bd
       0.024597274 0.023667315 -0.16781609 -0.07886734
000240 33 fb 16 3c 2d 29 9a 3d 7f d8 00 bd 9d f4 8f 3d
       0.009215164 0.07527385 -0.031456467 0.07029078
000250 77 b0 50 3d 14 65 86 bc b4 15 b1 bd a6 cb 01 3e
       0.05094954 -0.01640562 -0.08646718 0.12675342
000260 7a 3c c0 38 8b 13 7b be 35 43 ad 3c e0 0c 18 bc
       9.166538e-05 -0.24519174 0.02115021 -0.009280413
000270 39 f2 7a bd 6d 41 35 3e 85 2b dd bd 33 1f 38 be
       -0.061266158 0.17700739 -0.10799316 -0.17980652
000280 90 a5 96 3d 37 57 af bd bd be 22 bd d1 17 8d bd
       0.07355797 -0.08561557 -0.039732683 -0.06889308
000290 8d 84 24 be c7 82 f4 bd 0c 46 23 3e 4c 29 e0 3a
       -0.16066189 -0.11939006 0.1594469 0.0017102151
0002a0 b4 e2 3b 3d a0 88 ca 3d 35 9b f8 3d b3 28 84 3d
       0.045870498 0.098893404 0.121389784 0.06453075
0002b0 6c 1a b1 3d 90 d7 24 3e c6 a0 39 3e 73 8e e2 3d
       0.08647618 0.16097856 0.18127736 0.11062326
0002c0 6f 10 89 3d 25 e9 66 bd 39 36 93 3d 1f 8d 5c be
       0.066925876 -0.056374688 0.071880765 -0.21538208
0002d0 4d d5 91 3d 9d 64 76 be a3 0c b8 bd b5 70 7a 3d
       0.07120762 -0.24061818 -0.08986785 0.061142642
0002e0 db c5 0a 3e d5 9a a7 bd ae b1 75 bd 1e 69 72 bd
       0.13552038 -0.08183829 -0.0599839 -0.05918228
0002f0 61 9b 9c bc e8 1d 1d 3e 8f 05 2b 3a 69 65 97 3c
       -0.01911706 0.1534344 0.00065239606 0.018480973
000300 98 48 fb 3d 27 ab 52 be be 45 88 3d d1 cf 08 3e
       0.122697055 -0.20573102 0.06653927 0.13360526
000310 3e 11 ed 3d bd f0 08 be 0d bf 0c bd 5d 3c 69 3d
       0.11575554 -0.13373084 -0.034361888 0.056942333

fc2.bias f4 [2]
000000 f3 17 d3 3d 60 00 d7 bc
       0.10307302 -0.026245296
