2-binary-image-classification/weights.pt (torch, 512926 bytes, 12 tensors)

conv1.weight f4 [8, 3, 3, 3]
0	0xbe40a5f5	-0.18813308
1	0xbdc46c33	-0.0959095
2	0xbe575e47	-0.21032058
3	0xbe4cf2e6	-0.20014533
4	0xbd8b8faf	-0.06814515
5	0x3e10a7e5	0.14126547
6	0x3d9e4d5f	0.07729601
7	0x3e01d658	0.12679422
8	0xbe7c3fc0	-0.24633694
9	0xbd2685dc	-0.040655002
10	0xbe19aee6	-0.15008125
11	0xbd95ddfa	-0.07317729
12	0x3e154b2c	0.14579457
13	0xbc38c8d2	-0.011278348
14	0x3d4390f1	0.04774565
15	0x3dc38a89	0.09547908
16	0xbdb348b3	-0.08754101
17	0x3dacff60	0.084471464
18	0x3c8f1544	0.017466195
19	0x3dd7fff7	0.10546868
20	0x3daa3a16	0.0831186
21	0xbe4759a5	-0.1946779
22	0x3e386f49	0.18011202
23	0x3e323cd9	0.17406024
24	0x3e413ed9	0.1887163
25	0x3dad1d3b	0.08452841
26	0xbcc68a81	-0.024235966
27	0x3e031d28	0.12804091
28	0x3e0282aa	0.12745157
29	0xbcdb5c34	-0.026777364
30	0xbe30a639	-0.17250909
31	0x3d0dfad2	0.03466303
32	0xbd7f0509	-0.06226066
33	0xbe533952	-0.20627335
34	0xbe3a0c09	-0.18168654
35	0xbe7dafe6	-0.24774131
36	0x3e34571e	0.17611358
37	0x3e6723a0	0.22572184
38	0x3d8c2286	0.06842522
39	0x3db65eda	0.0890481
40	0xbe127f1a	-0.14306298
41	0x3d3575ae	0.04430168
42	0xbdade0ae	-0.0849012
43	0xbdfa9b88	-0.122366965
44	0xbd0652c7	-0.032793786
45	0xbde853ac	-0.11344084
46	0x3c08f123	0.008358273
47	0x3d1448aa	0.03620211
48	0xbd7f3741	-0.062308554
49	0xbe41dc58	-0.1893171
50	0xbe3c329d	-0.18378682
51	0x3e0a5aad	0.13511153
52	0x3e1fd458	0.15608346
53	0x3d8a7786	0.067610785
54	0xbcbc985b	-0.023021867
55	0xbe5173fd	-0.20454402
56	0xbe78b556	-0.24287924
57	0x3e48badd	0.19602533
58	0xbe0e3c45	-0.13890179
59	0x3ca7c29b	0.020478537
60	0x3bcd58b6	0.0062666787
61	0x3d77d35d	0.060504306
62	0xbe73fdab	-0.23827235
63	0x3d8a419b	0.067507945
64	0x3d874102	0.06604196
65	0x3d4a9247	0.049455907
66	0x3e204310	0.15650582
67	0x3cde5fbb	0.027145257
68	0xbcc5bf40	-0.024139047
69	0xbdb2f504	-0.08738139
70	0x3e1af306	0.15131769
71	0xbb9b4e3a	-0.00473955
72	0x3e186f4a	0.14886203
73	0xbc6c2a61	-0.014414401
74	0x3de9e1ba	0.11420007
75	0x3e1af829	0.15133728
76	0xbe1eebf7	-0.15519701
77	0x3c7e4d18	0.01552131
78	0xbd2fd5fb	-0.042928677
79	0xbe1ddd18	-0.15416372
80	0xbdf46ee4	-0.11935213
81	0x3cfb7120	0.03069359
82	0x3e72e9d5	0.23722012
83	0x3e852c3f	0.2601032
84	0x3e679cfd	0.2261848
85	0x3dc56f3e	0.096403584
86	0x3c454fb8	0.012042932
87	0xbc41fb1c	-0.011839654
88	0x3e11fba6	0.14256153
89	0x3d460084	0.048340335
90	0x3cc64211	0.024201425
91	0xbd4d4732	-0.050116725
92	0xbe6f60da	-0.2337679
93	0x3c020067	0.007934666
94	0x3e14dddb	0.14537756
95	0xbdcf2f7e	-0.1011648
96	0xbe5afbc4	-0.21385103
97	0xbddc45c3	-0.107554935
98	0xbe2d9f06	-0.16955194
99	0xbd930377	-0.07178395
100	0xbbc17782	-0.005904139
101	0xbd8c2df5	-0.06844703
102	0x3dc21505	0.094766654
103	0xbd3e0eee	-0.046400957
104	0x3e14b15c	0.14520782
105	0xbe146b5e	-0.14494082
106	0x3da8a8a8	0.082352936
107	0x3c14214b	0.009041141
108	0xbe4ec7d8	-0.20193422
109	0x3d99579e	0.07487415
110	0xbdce9016	-0.10086076
111	0x3e64e355	0.22352345
112	0x3decde4b	0.115658365
113	0xbdad3b26	-0.08458547
114	0x3e48ac65	0.19597013
115	0xbdb90f64	-0.09036139
116	0xbd484079	-0.04888961
117	0x3e30f8f1	0.17282464
118	0x3c98f0c4	0.018669493
119	0x3d3dd8f0	0.046349466
120	0x3e296814	0.16543609
121	0x3e7216e0	0.23641539
122	0x3db489f2	0.088153735
123	0x3d3b3046	0.045700334
124	0x3e2b44f6	0.16725525
125	0x3c65bfbb	0.014022763
126	0xbbcb6ab1	-0.006207787
127	0x3d8acd13	0.06777396
128	0xbc870f76	-0.016486865
129	0x3d056d4a	0.03257493
130	0xbd35134b	-0.044207852
131	0xbe36c5f7	-0.17848955
132	0x3e306fe8	0.17230189
133	0xbd2c0e4d	-0.042005826
134	0xbe2fffe8	-0.17187464
135	0xbdd148ce	-0.102189645
136	0x3d5e0f35	0.05421372
137	0xbcccbded	-0.024992907
138	0x3deb84b3	0.1149992
139	0xbe27d7ca	-0.1639091
140	0xbdf7684d	-0.12080441
141	0xbdd5518e	-0.10415946
142	0xbe3e254c	-0.18568915
143	0x3cdbb359	0.026818918
144	0x3c896337	0.016770942
145	0xbda39e98	-0.07989234
146	0xbe1ba491	-0.15199496
147	0xbe0424f0	-0.12904716
148	0x3e349b9c	0.17637485
149	0x3e2255c2	0.15853027
150	0xbd01a1ed	-0.031648565
151	0xbd326dc4	-0.043561712
152	0xbde323b6	-0.11090796
153	0xbe37f34e	-0.17963907
154	0x3cf4f838	0.029903516
155	0xbddb50a5	-0.10708741
156	0xbd008c6a	-0.03138391
157	0xbc4879a1	-0.01223603
158	0xbddb5ab0	-0.10710657
159	0x3d56bfa7	0.052428868
160	0xbd1408e3	-0.036141288
161	0xbdb32b82	-0.08748533
162	0x3e1798a8	0.14804327
163	0xbd9ba774	-0.076002985
164	0xbd0a41d0	-0.03375417
165	0x3d95f9a1	0.073230036
166	0xbd6636ba	-0.056204535
167	0x3ddcd465	0.107826985
168	0xbdee1482	-0.11625005
169	0xbcf60f0b	-0.03003647
170	0xbde633be	-0.11240338
171	0xbb6ab92c	-0.0035815937
172	0x3defab51	0.11702598
173	0xbe1cf41d	-0.15327497
174	0xbd21bbcf	-0.03948575
175	0xbcf81f78	-0.030288443
176	0x3e16e80e	0.1473696
177	0xbea272ee	-0.3172831
178	0xbc80c7c4	-0.015720256
179	0xbc34bae6	-0.011030888
180	0x3e41b243	0.18915658
181	0x3e0397ce	0.12850878
182	0x3d2f1052	0.042740174
183	0x3e093d51	0.13402297
184	0x3c27df4f	0.010246112
185	0x3dd075a8	0.10178691
186	0xbde00be1	-0.10939766
187	0x3e718ee0	0.23589659
188	0xbe0265d2	-0.12734154
189	0x3cc8ca99	0.024510669
190	0x3e067d53	0.13133745
191	0x3c987578	0.018610701
192	0x3c62a1c9	0.013832518
193	0x3e1978d9	0.14987506
194	0xbc2f6b3b	-0.010706718
195	0x3e88f35d	0.2674817
196	0xbc857047	-0.01628889
197	0x3d8da1a3	0.069155954
198	0x3b8692ef	0.0041068713
199	0x3d66e708	0.056372672
200	0xbe6ceabf	-0.23136424
201	0xbd04a09b	-0.032379728
202	0xbcfe6db1	-0.031058164
203	0xbdf43d77	-0.11925786
204	0xbe1806b4	-0.14846307
205	0xbe80fb1e	-0.25191587
206	0x3d99e1dd	0.07513783
207	0xbd9c96ba	-0.07645936
208	0xbcb5336d	-0.022119248
209	0x3d663007	0.056198146
210	0xbcbcff7b	-0.023071041
211	0x3dc83169	0.09775049
212	0xbdcdacc6	-0.100427195
213	0xbd8e7b62	-0.06957127
214	0xbe6a6315	-0.2288936
215	0xbe146749	-0.14492525

conv1.bias f4 [8]
0	0x3d5bf236	0.053697787
1	0x3e9d21b2	0.3068977
2	0x3e87b80a	0.26507598
3	0xbe95b241	-0.2923756
4	0xbe597b86	-0.21238527
5	0xbe0039d7	-0.12522064
6	0xbe5a2a7f	-0.21305273
7	0x3e434230	0.19068217

conv2.weight f4 [16, 8, 3, 3]
0	0xbd9fb558	-0.077982605
1	0x3d7d0416	0.061771475
2	0xbd90d5a4	-0.07071999
3	0x3e0df89a	0.13864365
4	0x3d81b36a	0.06333049
5	0xbd81dc23	-0.06340816
6	0xbe047834	-0.12936479
7	0x3de4c04e	0.11169492
8	0x3df3d805	0.11906437
9	0xbcf9a509	-0.030474203
10	0xbe16a2a2	-0.14710477
11	0xbe1622dc	-0.14661735
12	0xbe3dc88e	-0.18533537
13	0xbd3f45d7	-0.046697464
14	0xbdba5356	-0.09097926
15	0x3c6a4677	0.014299027
16	0xbe1df156	-0.15424094
17	0xbcb03acc	-0.021512412
18	0x3da49cef	0.08037745
19	0xbdb1f191	-0.08688653
20	0x3d9ceab7	0.07661956
21	0x3dad32f4	0.08456984
22	0x3dfca921	0.12336946
23	0xbcea488d	-0.028599048
24	0xbd1ecf37	-0.038771834
25	0x3d092bbd	0.033488978
26	0x3ddb8750	0.10719168
27	0x3e14b16b	0.14520805
28	0x3def1dfe	0.116756424
29	0x3e13fe1c	0.14452404
30	0xbcfa164e	-0.030528214
31	0x3e3afdd6	0.18260893
32	0xbceefc49	-0.029173033
33	0x3e568ee6	0.20952949
34	0x3e4e22f1	0.20130517
35	0x3e0374f1	0.12837578
36	0xbd9a817b	-0.07544228
37	0xbd0269eb	-0.031839292
38	0xbbd545df	-0.0065085734
39	0x3dceed17	0.10103815
40	0x3d49f02b	0.049301308
41	0x3ce1dc53	0.02757088
42	0x3d93442d	0.07190738
43	0xbde577c4	-0.11204484
44	0x3d1c9dc1	0.038236383
45	0xbccda264	-0.025101848
46	0x3dc9ed6f	0.0985974
47	0xbc777658	-0.015103899
48	0xbd9cd4b8	-0.076577604
49	0x3decb4e1	0.115579374
50	0xbde944cc	-0.11390075
51	0xbd834b37	-0.064108305
52	0x3d878269	0.06616671
53	0x3dc02fdf	0.09384131
54	0x3e69207c	0.22766298
55	0xbd57fbd3	-0.052730393
56	0x3daa1070	0.083039165
57	0x3bb170ef	0.005415074
58	0x3e3eb106	0.18622217
59	0xbc0967a5	-0.008386527
60	0x3b858323	0.0040744706
61	0x3d119eb7	0.035551753
62	0x3d7c36ef	0.061575826
63	0x3de4596a	0.11149867
64	0x3de85e86	0.11346154
65	0xbb9b96f4	-0.0047482196
66	0x3d2372cc	0.0399044
67	0xbbbb1e17	-0.005710374
68	0xbcdd13a3	-0.026986903
69	0x3e00fd0e	0.12596533
70	0x3dd7afce	0.10531579
71	0xbb73d84b	-0.0037207778
72	0xbd1b853d	-0.037968863
73	0x3d98d2ce	0.07462083
74	0x3cd296ee	0.025706735
75	0x3d5806bc	0.052740797
76	0xbe14b29b	-0.14521258
77	0xbd97d4c4	-0.07413629
78	0x3c333248	0.010937281
79	0x3bc63f65	0.0060500377
80	0x3d92e708	0.07172972
81	0x3d4de14e	0.050263695
82	0xbe1510af	-0.14557146
83	0xbda1d6da	-0.07902308
84	0x3e3b0df3	0.1826704
85	0x3da1dfa6	0.07903986
86	0xbd9fd58b	-0.07804402
87	0x3e1f026d	0.15528269
88	0x3d335554	0.043782547
89	0x3da4220d	0.08014307
90	0x3e032ba4	0.12809616
91	0x3ab020d3	0.0013437517
92	0x3d4953f2	0.049152322
93	0x3e0f9270	0.14020705
94	0xbe46579c	-0.19369358
95	0xbbabb9fa	-0.005240676
96	0x3e5d1145	0.21588619
97	0xbdbacdb5	-0.09121267
98	0xbd17fdeb	-0.03710739
99	0xbdb093eb	-0.08621963
100	0x3d89d4bb	0.06730028
101	0x3d80d3d8	0.06290406
102	0xbe08cbac	-0.13358945
103	0x3e2fad5b	0.17155974
104	0x3e2350ea	0.15948835
105	0xbe6d6439	-0.23182763
106	0x3c1fbdc8	0.009749837
107	0x3dd0a8e0	0.1018846
108	0xbcb58e70	-0.022162646
109	0xbdb73afd	-0.08946798
110	0xbc665495	-0.014058252
111	0xbdc7f034	-0.09762612
112	0xbe6556de	-0.22396418
113	0x3db7d718	0.08976573
114	0xbd6a11c7	-0.05714586
115	0xbea5768d	-0.3231701
116	0xbd8e94c9	-0.06961972
117	0xbcfea032	-0.031082246
118	0x3c7528db	0.014963354
119	0x3dbd38eb	0.09239372
120	0xbd0fcb2f	-0.03510588
121	0x3de9b8ff	0.11412238
122	0xbcf20633	-0.029543972
123	0x3dd66355	0.10468165
124	0xbc061eed	-0.008186084
125	0x3ca29456	0.019846123
126	0xbdf594db	-0.119912826
127	0xbc0ed9d6	-0.008718928
128	0xbdb405d6	-0.087901756
129	0x3d621ce6	0.05520334
130	0x3ddcfbb3	0.10790195
131	0x3df5cbcb	0.12001761
132	0xbdca1e16	-0.0986902
133	0xbe51fa42	-0.20505622
134	0x3d8c4a19	0.068500705
135	0x3dbf8b23	0.0935271
136	0x3d3069da	0.043069698
137	0x3dd00693	0.10157504
138	0x3e631bf6	0.22178635
139	0x3cd5dda8	0.02610667
140	0x3d9c36fd	0.07627676
141	0x3e052676	0.13002953
142	0x3df6a8e9	0.12043936
143	0x3d920121	0.071291216
144	0x39fd378c	0.00048297306
145	0xbd76c63a	-0.060247637
146	0xbd9c61c5	-0.076358356
147	0x3cb7f677	0.02245639
148	0x3d070646	0.032964967
149	0xbc051ea6	-0.008124983
150	0xbda0f314	-0.078588635
151	0xbd539f38	-0.051665515
152	0x3d2204df	0.039555427
153	0x3d0521ad	0.03250282
154	0x3e49693a	0.19669047
155	0x3df70853	0.120621346
156	0xbd199293	-0.0374933
157	0x3d2dac1e	0.042400472
158	0x3d5a3a2d	0.053278137
159	0xbe672627	-0.22573148
160	0xbc8e1803	-0.017345434
161	0x3d9cb71d	0.076521136
162	0x3d75e36b	0.060031336
163	0x3e07400b	0.13208024
164	0xbe2b79a7	-0.16745625
165	0x3e4cef43	0.20013146
166	0x3d979f1b	0.07403394
167	0xbdb8db0e	-0.09026156
168	0x3dde2493	0.1084682
169	0x3dce5e57	0.10076588
170	0xbdf36f95	-0.11886517
171	0xbde661d5	-0.11249129
172	0xbe7a7604	-0.24459082
173	0xbe0e9eee	-0.13927814
174	0xbcedb931	-0.02901897
175	0xbe90f560	-0.28312206
176	0xbe265064	-0.16241604
177	0x3d711c68	0.05886498
178	0xbe2c3213	-0.16815977
179	0x3bc67a0d	0.00605703
180	0x3e31583e	0.17318818
181	0x3db4d406	0.08829503
182	0xbdae3b65	-0.08507422
183	0x3e099a47	0.13437758
184	0x3dda0898	0.106461704
185	0xbd448dfe	-0.047986977
186	0xbd37e355	-0.044894535
187	0xbc92a004	-0.017898567
188	0x3c1bfec2	0.009521188
189	0x3cdd84ef	0.027040927
190	0x3d86cfe7	0.06582623
191	0x3db75386	0.08951478
192	0x3d8a409a	0.06750603
193	0xbd520f5a	-0.05128417
194	0x3d8b3dc9	0.06798894
195	0xbb6906d4	-0.0035557048
196	0x3db11003	0.08645632
197	0xbd33365b	-0.04375301
198	0xbdc792cd	-0.09744797
199	0xbdc59fa1	-0.096495874
200	0xba15cc0f	-0.0005714306
201	0xbe9d98de	-0.3078069
202	0xbe97983d	-0.29608336
203	0xbdecb2b8	-0.115575254
204	0xbe3c87c8	-0.18411171
205	0xbdc277a0	-0.09495473
206	0xbc8ed530	-0.01743564
207	0xbd562673	-0.05228276
208	0xbe0657de	-0.13119456
209	0xbe01f87a	-0.12692443
210	0xbbc680e7	-0.006057847
211	0x3c0a253c	0.008431729
212	0xbe244f7d	-0.16045947
213	0x3d1a671f	0.037696
214	0xbe199c5e	-0.15001056
215	0xbccb7a76	-0.024838667
216	0xbc17d836	-0.009267857
217	0xbdf96dfb	-0.1217918
218	0xbcd13a6a	-0.02554055
219	0xbdc6f8e8	-0.09715444
220	0x3c6d1abf	0.014471709
221	0x3d2c0197	0.041993704
222	0x3d3da84a	0.04630307
223	0x3e76ce6b	0.2410218
224	0x3e4847b4	0.19558603
225	0xbe005492	-0.12532261
226	0xbe2240d6	-0.15845045
227	0xbe4203f3	-0.18946819
228	0xbe349a7f	-0.1763706
229	0x3dc41753	0.09574761
230	0xbe679291	-0.22614504
231	0x3d1ef78f	0.03881031
232	0xbc1f572c	-0.009725373
233	0xbcb53f7f	-0.022125004
234	0xbe251b2b	-0.16123645
235	0xbe35e473	-0.17762928
236	0xbd07328a	-0.033007182
237	0x3d18920b	0.037248652
238	0x3d378ee7	0.044814017
239	0xbdd6f486	-0.10495858
240	0xba5eab04	-0.0008494111
241	0xbdacc8c5	-0.08436731
242	0x3db71f1d	0.08941481
243	0xbdb04fe7	-0.0860899
244	0xbd6c9539	-0.057759497
245	0xbe092b1b	-0.1339535
246	0x3dcafc26	0.09911375
247	0x3d303d19	0.043027017
248	0x3ce330c7	0.02773322
249	0xbc99bcf5	-0.01876686
250	0xbc4a23b8	-0.012337618
251	0x3d688ae7	0.056773093
252	0xbde0c331	-0.1097473
253	0xbe1d503c	-0.15362638
254	0xbdbdeb58	-0.09273404
255	0xbde34b7b	-0.11098381

conv2.bias f4 [16]
0	0xbe3d223f	-0.18470095
1	0xbcf9a255	-0.030472914
2	0x3d92ed86	0.0717421
3	0x3e2da29a	0.16956559
4	0x3d441987	0.047875907
5	0xbdbde895	-0.09272877
6	0xbd8ed5a1	-0.0697434
7	0xbd8a6857	-0.067581825
8	0xbbbadaee	-0.005702368
9	0x3d582a9e	0.052775018
10	0xbd441d00	-0.04787922
11	0xbd9d5cb8	-0.076837
12	0xbdf8eaf9	-0.121541925
13	0xbd04ae06	-0.032392524
14	0x3e63096f	0.22171567
15	0xbe0b2b46	-0.13590726

conv3.weight f4 [32, 16, 3, 3]
0	0xbb8133c8	-0.0039429404
1	0xbdcc4fa0	-0.09976125
2	0x3c8938af	0.016750662
3	0xbdb851a9	-0.089999504
4	0xbbdf7117	-0.0068189013
5	0xbc736ef2	-0.014857994
6	0xbc6760e8	-0.014122225
7	0x3d1691a0	0.036759973
8	0xbb40e2ce	-0.002943206
9	0xbd74ee3e	-0.059797518
10	0xbd154c18	-0.03644952
11	0x3ca74b1e	0.02042156
12	0xbcafe152	-0.021469746
13	0xbcda6d60	-0.026663482
14	0x3d110544	0.035405412
15	0x3b9841e5	0.004646527
16	0x3d6a402b	0.0571901
17	0xbd63f8d7	-0.055657234
18	0xbd011511	-0.03151423
19	0x3b60df00	0.0034312606
20	0xbc0288fb	-0.007967229
21	0x3d504010	0.050842345
22	0xbcbef923	-0.023312157
23	0xbc6affe1	-0.014343233
24	0xbc7b3512	-0.015332477
25	0xbd5266d8	-0.05136761
26	0x3ccd8b90	0.025090963
27	0xbd0e04f5	-0.034672696
28	0xbd0a00fe	-0.033692352
29	0x3cd74e3f	0.026282428
30	0xbc832aed	-0.01601168
31	0xbdbe7be6	-0.093009755
32	0x3d60c708	0.05487731
33	0xbc75c4b9	-0.015000516
34	0xbcc896fb	-0.024486056
35	0xbcba34ad	-0.022730196
36	0xbdc0dac8	-0.09416729
37	0x3d5bc862	0.053657897
38	0xbc1c671d	-0.0095460685
39	0x3d393d34	0.045224383
40	0xbd84c8fb	-0.064836465
41	0xbbde9afb	-0.0067933775
42	0x3d0a9ca9	0.03384081
43	0x3d45256e	0.0481314
44	0xbd989528	-0.07450324
45	0x3d51d5c2	0.051229246
46	0x3c9f1a12	0.019421611
47	0xbdb47476	-0.08811276
48	0xbd80a4cb	-0.06281432
49	0xbd05aced	-0.032635618
50	0xbd7e8072	-0.062134214
51	0xbdad4c19	-0.0846178
52	0xbd77673b	-0.060401183
53	0xbcbe8235	-0.023255447
54	0xbd30236a	-0.043002523
55	0xbcc95016	-0.02457432
56	0xbda77ac1	-0.0817771
57	0xbbaa172f	-0.005190752
58	0xbcff6a2c	-0.031178556
59	0xbc721647	-0.014775819
60	0x3d24372e	0.040091686
61	0xbcb6535d	-0.022256548
62	0x3d0e187e	0.034691326
63	0xbd690821	-0.056892518
64	0xbd5a96ab	-0.053366344
65	0xbc2015f2	-0.009770857
66	0x3d4b0cd1	0.04957277
67	0xbd85243a	-0.0650105
68	0x3cc8b8dd	0.024502212
69	0x3c798c99	0.015231275
70	0xbdc8509c	-0.09781
71	0x3d7118c7	0.05886152
72	0x3d13e966	0.036111258
73	0x3c3f6c59	0.011683547
74	0x3b8881f8	0.004165884
75	0x3bf5755b	0.0074907965
76	0x3c1a235a	0.0094078425
77	0x3d505c9b	0.050869565
78	0xbd2b38bc	-0.041802153
79	0x3d3b28d1	0.045693222
80	0xbd8bb577	-0.06821721
81	0x3cb92fcf	0.022605805
82	0xbd4249f4	-0.04743381
83	0xbd7fb233	-0.062425803
84	0xbdaffbc7	-0.085929446
85	0x3d570670	0.052496374
86	0xbda857db	-0.08219882
87	0xbd9db440	-0.077003956
88	0x3b88aac6	0.0041707484
89	0xbc82427f	-0.015900848
90	0xbd8b8b6d	-0.06813703
91	0xbd633e2d	-0.055479217
92	0xbdaf3bee	-0.085563526
93	0xbca05579	-0.019572007
94	0x3aeb634a	0.0017958668
95	0xbdc7d053	-0.097565316
96	0x3d7e04b0	0.06201619
97	0x3d4d98a3	0.050194394
98	0xbd0f86fc	-0.03504084
99	0x3d7acfaa	0.0612332
100	0x3d55fc6c	0.05224268
101	0x3c0b363e	0.008496819
102	0xbc847666	-0.016169738
103	0x3d008200	0.031373978
104	0xb8dccec4	-0.000105289306
105	0x3d73f203	0.059556972
106	0xbd9a6005	-0.075378455
107	0xbaa5f5a9	-0.0012661713
108	0x3d7a523b	0.061113577
109	0xbd95502b	-0.072906815
110	0xbd7131bb	-0.058885317
111	0x3caf318b	0.021385929
112	0xbd881348	-0.066443026
113	0x3b8f7cc0	0.004378885
114	0x3d0ed803	0.034873974
115	0x3c187eeb	0.009307603
116	0x3cf1e9c0	0.029530406
117	0x3c0e880c	0.008699428
118	0xbdb09337	-0.08621829
119	0x3d0bf4b7	0.034168925
120	0xbcea6610	-0.02861312
121	0xbd81f2cc	-0.06345138
122	0xbdd5ca2a	-0.1043895
123	0x3c45695c	0.012049045
124	0xbdb8c765	-0.090224065
125	0xbd3d7e11	-0.046262804
126	0x3d6caa30	0.05777949
127	0x3d00e38f	0.031467017
128	0xbc5e730c	-0.013577234
129	0x3c9de532	0.019274328
130	0xbd70db6c	-0.058803007
131	0xbcf72221	-0.030167641
132	0x3ba8abed	0.0051474483
133	0xbd8f50af	-0.06997811
134	0xbd22cc0f	-0.039745387
135	0xbcaf0990	-0.021366864
136	0xbc4aec8b	-0.012385498
137	0xbcdd4ccb	-0.027014157
138	0xbbd2b6c0	-0.006430477
139	0x3abb8256	0.0014305811
140	0x3cbf898b	0.023381015
141	0x3c6ec90b	0.0145743
142	0xbbe01896	-0.0068388684
143	0x3d577c0b	0.05260853
144	0xbc021614	-0.007939834
145	0xbe16e6b2	-0.14736441
146	0xbdcbbc5a	-0.099480346
147	0xbd25e8ba	-0.04050515
148	0x3cc54187	0.024079097
149	0x3d50a56f	0.05093902
150	0xbc51aab3	-0.0127970455
151	0xbce3a41d	-0.027788216
152	0xbd376172	-0.044770665
153	0xbe5cf71e	-0.21578643
154	0xbe110adb	-0.14164297
155	0x3d8993b8	0.06717628
156	0xbdf44f84	-0.11929229
157	0xbebaff57	-0.36522934
158	0xbe2f44bb	-0.17116062
159	0x3d45fef4	0.048338845
160	0xbe504ce8	-0.20341837
161	0xbe10f95c	-0.14157623
162	0x3db0c624	0.08631542
163	0x3ce99a89	0.02851607
164	0xbe0104cb	-0.12599485
165	0x3d192704	0.037390724
166	0xbdfbe1e7	-0.12298947
167	0xbe115e8e	-0.14196226
168	0xbd74cd65	-0.059766192
169	0xbdd50161	-0.10400654
170	0xbe48158f	-0.19539474
171	0x3d2a2fdc	0.04154955
172	0x3e4e2e80	0.20134926
173	0x3e85f6c4	0.2616483
174	0x3d0e6111	0.03476054
175	0x3e5a76fe	0.21334454
176	0x3db59f74	0.08868304
177	0x3d81b1e6	0.063327596
178	0x3d607ba3	0.05480541
179	0xbd9b01b2	-0.07568683
180	0xba952091	-0.0011377503
181	0xbd7c01cf	-0.061525162
182	0x3dfd0bf6	0.12355797
183	0xbd51bf6b	-0.05120794
184	0x3baf3158	0.0053464584
185	0x3c0aa23d	0.008461532
186	0x3d4600f9	0.04834077
187	0xbe1c8ba5	-0.15287645
188	0xbd880dc6	-0.06643252
189	0xbe1d8b79	-0.15385236
190	0xbebc4eaa	-0.36778766
191	0xbe45b2cd	-0.19306488
192	0x3b2acb6d	0.0026061193
193	0xbd2b4b7c	-0.041820034
194	0xbd458113	-0.048218798
195	0xbcceecca	-0.025259394
196	0xbe1c2c82	-0.15251353
197	0xbdac5e7f	-0.08416461
198	0xbe9ee820	-0.31036472
199	0xbd661ddd	-0.056180824
200	0xbe5f8faa	-0.21832147
201	0x3de07eb6	0.10961668
202	0xbdd38046	-0.103272006
203	0xbdbd4d30	-0.09243238
204	0x3d5af69e	0.05345785
205	0xbddc35c1	-0.1075244
206	0xbe7bbbfc	-0.24583429
207	0x3e5034d2	0.2033265
208	0xbe99f70d	-0.30071297
209	0xbe4497d5	-0.19198544
210	0xbe052733	-0.13003235
211	0xbe611a87	-0.21982776
212	0x3d2d6b3b	0.04233859
213	0xbbcb7a3b	-0.0062096394
214	0xbe1297ab	-0.14315669
215	0xbcf6da1f	-0.030133305
216	0x3d34c145	0.04412963
217	0xbdefaa14	-0.11702362
218	0xbe341f3d	-0.17590041
219	0xbdf9b421	-0.1219256
220	0x3e014a3d	0.12625976
221	0x3dfd5009	0.12368781
222	0xbe104f2b	-0.140927
223	0xbd26fe9c	-0.04077016
224	0xbc8b2db2	-0.016989563
225	0xbd0d5092	-0.034500666
226	0xbd2ba8dc	-0.041909084
227	0x3d027eea	0.031859316
228	0xbe0d2802	-0.13784793
229	0xbdd52d06	-0.10408978
230	0xbc9d570e	-0.01920655
231	0xbdfbed95	-0.123011746
232	0xbe89b10a	-0.26892883
233	0x3d5a95a8	0.05336538
234	0xbd0d0228	-0.034425884
235	0xbd02e3ea	-0.031955637
236	0xbdb37c21	-0.0876391
237	0x3dc75148	0.097323
238	0xbcc5e81c	-0.02415853
239	0xbb4a3877	-0.003085641
240	0x3ad4b2aa	0.0016227562
241	0x3e026b69	0.12736286
242	0xbd19c15b	-0.037537914
243	0x3ca818df	0.020519672
244	0x3c83e06c	0.016098224
245	0xbe530d11	-0.20610453
246	0xbd95ba25	-0.07310895
247	0xbea00d08	-0.31259942
248	0xbec9a2ee	-0.39382118
249	0xbe756420	-0.23963976
250	0xbe94bb10	-0.29048967
251	0xbe362d0f	-0.17790626
252	0xbda9636a	-0.08270915
253	0x3d242ad2	0.0400799
254	0xbe2c5801	-0.16830446
255	0xbdbaae62	-0.09115292

conv3.bias f4 [32]
0	0xbdc41f53	-0.09576287
1	0x3da8c328	0.08240348
2	0x3bd80c29	0.0065932465
3	0xbb2d25bc	-0.0026420197
4	0xbc0f9b4e	-0.008765055
5	0x3da3681a	0.0797884
6	0x3d5ce2a1	0.053927068
7	0x3bedd19a	0.0072576525
8	0xbda05bbd	-0.07829998
9	0xbdf076d8	-0.11741418
10	0x3a824a50	0.000994036
11	0xbdae3311	-0.08505834
12	0xbddf0fe2	-0.10891701
13	0x3d4d068f	0.050055083
14	0xbda61901	-0.08110238
15	0x3dd9b14e	0.10629521
16	0xbdff90f7	-0.12478822
17	0x3c891440	0.016733289
18	0x3cb67568	0.02227278
19	0xbd7817fc	-0.06056975
20	0xbd242bb3	-0.040080737
21	0xbcbfdb7d	-0.02342009
22	0xbb3f2b8f	-0.002917025
23	0xbdce56c7	-0.10075145
24	0xbb8382cf	-0.0040133963
25	0x3d86ff84	0.065917045
26	0xb96bfc3a	-0.00022505308
27	0x3cc8893d	0.024479503
28	0xbd0105ae	-0.031499557
29	0xbd8c3958	-0.06846875
30	0xbda01b95	-0.07817761
31	0x3dea35bf	0.114360325

conv4.weight f4 [64, 32, 3, 3]
0	0xbd1f50da	-0.038895465
1	0x3b4f7263	0.0031653873
2	0xbc5007a0	-0.01269713
3	0xbd090e7e	-0.033461086
4	0xbcd567a4	-0.026050396
5	0x3d166401	0.036716465
6	0x39847c29	0.00025269508
7	0x3ceba5df	0.028765617
8	0x3c218ecd	0.0098607065
9	0x3c95702a	0.01824196
10	0xbb2f6618	-0.0026763733
11	0x3cd3f342	0.02587283
12	0xbc4b60d3	-0.012413221
13	0x3d4f34d5	0.050587494
14	0x3c7eb9c1	0.015547217
15	0xbe1788b0	-0.14798236
16	0xbcc66447	-0.024217738
17	0x3d476aae	0.048685722
18	0x3d1e661b	0.038671594
19	0xbe0479bb	-0.12937061
20	0xbdca03d5	-0.09864012
21	0xbdb43373	-0.08798876
22	0xbdd0d34b	-0.10196551
23	0xbd54fa9f	-0.051996823
24	0x3d98e2ed	0.07465158
25	0x3db3b460	0.08774638
26	0x3e7614cb	0.2403137
27	0x3ce5fd12	0.028074775
28	0x3d93283a	0.07185407
29	0x3d829146	0.06375365
30	0x3e510bd1	0.20414664
31	0xbe4e31f2	-0.2013624
32	0x3dca22c9	0.09869916
33	0x3e164c35	0.14677508
34	0x3d9679a2	0.07347418
35	0x3e397714	0.18111831
36	0xbc1834b1	-0.009289906
37	0x3deca529	0.11554939
38	0x3d889408	0.0666886
39	0xbc45d39c	-0.012074377
40	0x3dba4a81	0.09096242
41	0x3c1ed306	0.009693867
42	0xbd287807	-0.041130092
43	0x3d98915e	0.074496016
44	0xbde03435	-0.10947458
45	0xbbf54370	-0.007484846
46	0xbba64608	-0.0050742663
47	0xbda718ce	-0.08159028
48	0x3c16398f	0.0091689965
49	0xbcda9b26	-0.026685309
50	0xbb0163eb	-0.0019743394
51	0xbd951381	-0.07279111
52	0xbcb9b403	-0.022668844
53	0x3d508ac7	0.0509136
54	0xbe1fb840	-0.1559763
55	0xbdff5852	-0.12468018
56	0xbd5240be	-0.051331274
57	0xbd0f22c3	-0.03494526
58	0x3c389534	0.011266042
59	0x3debf080	0.11520481
60	0x3da49c5d	0.080376364
61	0x3e4c1647	0.19930373
62	0x3e887d02	0.26657873
63	0x3dfd649c	0.12372705
64	0x3df9879e	0.1218407
65	0x3e089037	0.13336264
66	0x3ae9a856	0.0017826657
67	0xbda222c3	-0.079167865
68	0xbced1ab8	-0.028943405
69	0x3df5da20	0.12004495
70	0x3cc7c8e9	0.024387794
71	0x3d87c11b	0.06628629
72	0x3db96308	0.09052092
73	0xbbcb5637	-0.006205346
74	0x3b8d9329	0.0043205214
75	0xbbde088f	-0.0067759226
76	0xbdd13c31	-0.10216559
77	0xbd1c87f4	-0.038215593
78	0x3d1a3f15	0.037657816
79	0x3c70deaa	0.014701525
80	0xbd4fbfd9	-0.05072007
81	0x3d678b0e	0.056529097
82	0x3e048fae	0.12945434
83	0x3bc13199	0.005895805
84	0x3d481f73	0.048858117
85	0x3d4ca206	0.049959205
86	0xbe207d81	-0.15672876
87	0xbdd0d943	-0.101976894
88	0xbe99f21a	-0.3006752
89	0xbd2b3fe4	-0.041808978
90	0x3b232057	0.0024891102
91	0x3cb83bdd	0.022489483
92	0xbd245336	-0.04011842
93	0xbdaa9af2	-0.08330335
94	0xbdab7d2d	-0.08373485
95	0xbd6114f3	-0.05495162
96	0xbdcd9dcd	-0.10039864
97	0xbd39624f	-0.04525977
98	0x3d6cc6d4	0.057806805
99	0xbc3f544b	-0.011677812
100	0xbd2c7d4f	-0.04211169
101	0xbdd5cee1	-0.1043985
102	0x3c74136e	0.0148972105
103	0xbdd12afa	-0.10213275
104	0xbe119213	-0.14215879
105	0xbc754bc3	-0.014971676
106	0xbe1b9242	-0.15192512
107	0xbd6a9262	-0.057268508
108	0x3d749fe4	0.059722796
109	0xbd7b91c1	-0.0614183
110	0x3b322319	0.0027181564
111	0xbdd8830a	-0.10571869
112	0x3d8fb92e	0.07017742
113	0xbe128a4f	-0.14310573
114	0x3d82729a	0.06369515
115	0xbc51f1f8	-0.0128140375
116	0x3d446c39	0.04795477
117	0x3d829dca	0.06377752
118	0x3d6008f8	0.054696053
119	0x3d1b3e84	0.037901416
120	0x3cc739fb	0.02431964
121	0xbc1a8ccb	-0.009432982
122	0x3d1dbf8d	0.038512755
123	0xbd859244	-0.065220386
124	0x3d716883	0.05893756
125	0x3d718513	0.0589648
126	0x3d61ab0c	0.055094764
127	0xbd7821a7	-0.06057897
128	0xbe006c97	-0.12541424
129	0x3b3119ac	0.0027023358
130	0xbe0f11f5	-0.13971694
131	0xbe187ab2	-0.14890555
132	0xbda548e0	-0.080705404
133	0xbe20f910	-0.1572001
134	0xbb84b14f	-0.004049457
135	0x38f0ca48	0.000114817696
136	0x3b05d399	0.0020420311
137	0xbd17f7be	-0.0371015
138	0x3d8c5843	0.06852772
139	0xbcb969f7	-0.022633536
140	0xbc3113c2	-0.010807933
141	0xbdd84f21	-0.10561968
142	0x3d5528dd	0.052040923
143	0x3c8bf453	0.017084276
144	0x3ddefbe2	0.108878866
145	0x3dcc7306	0.099828765
146	0x3d77722e	0.060411625
147	0x3da3deb6	0.08001463
148	0x3c42de8e	0.0118938815
149	0xbe358ea5	-0.17730196
150	0x3ca1cc9f	0.019750891
151	0xbe3e36b1	-0.1857555
152	0xbd4f0d40	-0.050549746
153	0x3d6c8e6b	0.057753008
154	0x3dba3c7c	0.09093568
155	0xbdeec193	-0.11658015
156	0xbd8f8156	-0.07007091
157	0xbc4a496a	-0.012346605
158	0x3d6e4dd4	0.05817969
159	0x3d9d3384	0.076758415
160	0xbcc144dc	-0.023592405
161	0xbd6060c2	-0.054779775
162	0xbd7d7ad0	-0.0618847
163	0xbcd47a0b	-0.0259371
164	0x3d9c36a8	0.07627612
165	0xbe5afa1f	-0.21384476
166	0xbda659de	-0.081226096
167	0xbd7e764f	-0.062124547
168	0xbe17907e	-0.14801213
169	0xbe47ed44	-0.19524103
170	0xbddc6fb7	-0.107634954
171	0x3cf0eede	0.029410776
172	0x3d8996aa	0.0671819
173	0x3d275896	0.040855967
174	0x3d47333b	0.04863284
175	0xbd2f8543	-0.042851698
176	0x394c88ee	0.00019505966
177	0x3cae05f9	0.021243082
178	0xbc6a74f2	-0.0143101085
179	0x3c924756	0.017856281
180	0xbd39e48c	-0.045383975
181	0xbe3dafcd	-0.18524094
182	0x3d931998	0.07182616
183	0xbc4fb4aa	-0.012677351
184	0xbd412f31	-0.047164146
185	0xbdceade4	-0.10091761
186	0x3d998a94	0.07497135
187	0xbcefba4c	-0.029263638
188	0x3dd42a8d	0.103596784
189	0x3dcfd260	0.10147548
190	0xbd80a2b4	-0.06281033
191	0x3e3f22c6	0.18665609
192	0x3d736d57	0.059430446
193	0xbd362909	-0.044472728
194	0x3de6df13	0.11273017
195	0x3e0228d2	0.12710884
196	0xbcd799c6	-0.026318442
197	0x3d449e36	0.048002444
198	0x3e0ccb79	0.13749494
199	0xbbc41c36	-0.0059848083
200	0x3cde43d8	0.02713196
201	0x3d3b9d99	0.045804594
202	0x3de192a3	0.11014297
203	0xbd16ed06	-0.036847137
204	0x3d2ee252	0.042696305
205	0xbd4afb5c	-0.04955612
206	0x3c7d5115	0.015461226
207	0x3dea48ca	0.11439665
208	0x3d0fdd1a	0.03512297
209	0xba195f9b	-0.0005850733
210	0x3c628bc7	0.013827271
211	0xbd9bd7ed	-0.07609544
212	0x3dc836b3	0.09776058
213	0x3d615c36	0.05501958
214	0x3d8e0c4f	0.069359414
215	0x3e2c6401	0.16835023
216	0xbcb6c211	-0.022309335
217	0xbda1435f	-0.07874178
218	0xbc626c69	-0.013819792
219	0x3e0be9b1	0.13663365
220	0xbcf06b16	-0.029347938
221	0xbda3914f	-0.079867
222	0x3dc38f87	0.0954886
223	0x3da1e5d8	0.07905167
224	0xbdfb17ef	-0.12260424
225	0xbe1076ba	-0.1410779
226	0xbddb8162	-0.10718037
227	0xbda54d89	-0.08071429
228	0xbe2fb078	-0.17157161
229	0xbdec5d50	-0.115412354
230	0xbd830e53	-0.063992165
231	0xbda7378b	-0.08164891
232	0x3ce2f067	0.027702523
233	0xbd0c5f75	-0.034270722
234	0x3e06aaea	0.13151136
235	0x3ce737d2	0.02822486
236	0x3e05fd5e	0.13084933
237	0xbcd34c1c	-0.025793128
238	0xbd9e46a9	-0.07728321
239	0xbcf71225	-0.03016002
240	0x3e29bce0	0.16575956
241	0xbd81b0dc	-0.063325614
242	0x3d787bc8	0.060664922
243	0xbd1ea8f3	-0.03873534
244	0xbe041a56	-0.12900671
245	0xbe48d654	-0.1961301
246	0xbc727eda	-0.014800752
247	0xbd9a7a46	-0.07542853
248	0x3d4c4fd5	0.04988082
249	0x3dac5ec2	0.08416511
250	0x3dec2c4d	0.11531887
251	0x3e47b1af	0.19501375
252	0xbc4c44ea	-0.012467602
253	0xbe556691	-0.20839907
254	0xbe149066	-0.14508209
255	0xbc9f36dd	-0.01943534

conv4.bias f4 [64]
0	0xbd476659	-0.04868159
1	0xbd85f877	-0.065415315
2	0x3d22b05c	0.03971897
3	0xbd9b702f	-0.07589757
4	0x3bdae5aa	0.00668021
5	0xbdc41901	-0.095750816
6	0xbd9d3f12	-0.07678045
7	0xbd657a90	-0.056025088
8	0x3d58085d	0.05274235
9	0x3cedfe5f	0.029051958
10	0xbd43bc21	-0.047786836
11	0x3c2f375d	0.010694352
12	0xbd8fdd1a	-0.07024594
13	0x3c7b9bba	0.015356952
14	0xbdb2c1ea	-0.087283924
15	0xbd3bd03f	-0.045852896
16	0x3df7002c	0.1206058
17	0xbc9b83b1	-0.018983694
18	0x3d25470b	0.040350955
19	0x3b5e3205	0.0033904326
20	0x3ca58d32	0.020208929
21	0x3c4b4d1f	0.012408524
22	0x3c28c2b8	0.010300331
23	0x3c23a9af	0.009989186
24	0x3d89dec3	0.067319416
25	0xbd107ee7	-0.035277274
26	0x3c17177c	0.009221908
27	0xbcb60bc1	-0.022222402
28	0xbcae004b	-0.021240374
29	0xbd7b9277	-0.061418977
30	0xbbc714f8	-0.0060754977
31	0x3ba4e868	0.005032588
32	0x3c84a7c9	0.016193287
33	0xbd278c0f	-0.040905055
34	0x3cc2670d	0.023730779
35	0x3cdba32c	0.026811205
36	0xbcab3263	-0.02089805
37	0xbcddace9	-0.027059989
38	0x3d8f7b49	0.07005937
39	0x3d162a65	0.036661524
40	0xbcc3cd14	-0.0239015
41	0xbd524d0d	-0.051343013
42	0x3d3f287b	0.046669465
43	0xbd43e764	-0.047828093
44	0x3c8038c9	0.015652077
45	0xbd3609d9	-0.044442985
46	0xbd527118	-0.051377386
47	0xbd74bccb	-0.05975036
48	0xbd7f595d	-0.062341083
49	0xbda14fcc	-0.07876548
50	0xbd8759c5	-0.06608919
51	0xbc8b60a3	-0.017013853
52	0xbd985305	-0.0743771
53	0xbd88a912	-0.066728726
54	0xbd8e06f2	-0.069349185
55	0x3d6fff3a	0.058593012
56	0xbca97365	-0.020684907
57	0xbcbd07ba	-0.023074973
58	0xbc9277de	-0.017879423
59	0xbd871384	-0.06595519
60	0x3c88ed9b	0.016714862
61	0xbca5eee4	-0.020255513
62	0x3d1bebb4	0.03806658
63	0xbd35bf55	-0.04437192

fc1.weight f4 [100, 1024]
0	0x3ceff05b	0.029289415
1	0xbd6dcd48	-0.0580571
2	0xbd9bd210	-0.076084256
3	0x3dbee140	0.09320307
4	0xbde815b0	-0.113322616
5	0xbc28f013	-0.010311144
6	0xbc096945	-0.008386915
7	0x3b457ea1	0.003013529
8	0xbd7f2339	-0.06228945
9	0xbd3d24a7	-0.046177533
10	0x3d850cc8	0.064965785
11	0x3d801d24	0.06255558
12	0x3d34b1af	0.044114765
13	0xbd90c01d	-0.07067893
14	0xbc0b1bf4	-0.008490551
15	0x3e4b51fd	0.19855495
16	0xb9e8d9cd	-0.00044412763
17	0xbd63635f	-0.05551469
18	0x3cb3976e	0.021922793
19	0x3d7c2249	0.061556134
20	0xbc84681e	-0.016162928
21	0x3df7db14	0.12102333
22	0x3c75b1df	0.014996021
23	0x3d136490	0.035984576
24	0xbcc3c872	-0.02389929
25	0x3d2f80b2	0.042847343
26	0x3d0c0a5e	0.034189574
27	0x3cd309a4	0.025761433
28	0xbd8257a0	-0.063643694
29	0xbd1c3247	-0.038133886
30	0x3d3e1b46	0.04641273
31	0x3d69997b	0.057031136
32	0x3dfcce27	0.12344008
33	0x3cf3f198	0.029778287
34	0x3e1ef1c4	0.15521914
35	0xbc02f194	-0.007992167
36	0xbd535908	-0.05159858
37	0x3dd73d90	0.10509789
38	0x3d173aeb	0.036921423
39	0xbbfaa8ce	-0.0076495176
40	0xbdeed2e5	-0.11661319
41	0xbcc3e481	-0.02391267
42	0x3bd8fe42	0.006622107
43	0x3d6e8cfe	0.05823993
44	0x3d368a78	0.044565648
45	0xbd760b41	-0.060069326
46	0xbbabe81d	-0.005246176
47	0xbd739d78	-0.059476346
48	0x3d028ce0	0.03187263
49	0xbc470906	-0.012148147
50	0x3dc473fe	0.09592436
51	0x3df2c847	0.11854606
52	0xbdb67e13	-0.089107655
53	0xbd8cd1b7	-0.068759374
54	0x3c3f6ff9	0.011684411
55	0x3cc82f4a	0.024436612
56	0xbd59723d	-0.05308746
57	0xbcab7945	-0.02093185
58	0x3da4b91f	0.080431215
59	0x3c912fb3	0.01772294
60	0x3e364c67	0.17802583
61	0x3c3211ce	0.010868503
62	0x3d9ec426	0.07752256
63	0x3d8b9706	0.06815915
64	0x3e29e3f3	0.16590862
65	0x3c8905c2	0.016726378
66	0xbca6844a	-0.020326752
67	0x3c8fd7c1	0.017558934
68	0xbcf5204c	-0.029922627
69	0xbd7c0dc5	-0.06153657
70	0x3d13e397	0.03610572
71	0x3bd77b44	0.0065759737
72	0x3d023b04	0.031794563
73	0xbcaa4f73	-0.020789837
74	0x3d15740d	0.036487628
75	0x3db4e0bb	0.088319264
76	0x3d8a364c	0.067486376
77	0xbc5e36e7	-0.013562894
78	0x3d8459a5	0.06462411
79	0xbd81fc23	-0.063469194
80	0x3cd6be7f	0.026213882
81	0xbd02d70f	-0.031943377
82	0xbd74c193	-0.05975492
83	0xbc099e09	-0.008399495
84	0x3bb377e9	0.005476941
85	0x3d8870e0	0.06662154
86	0xbda0586e	-0.078293666
87	0x3a9efd68	0.0012129964
88	0x3c632330	0.01386337
89	0x3d01593f	0.031579252
90	0x3d58d739	0.052939627
91	0xbc6ab71e	-0.014325885
92	0x3c4ee5ca	0.012628028
93	0xbce76262	-0.028245155
94	0x3b60bab9	0.0034290983
95	0x3a4a68d3	0.00077213085
96	0x3c7e50e4	0.0155222155
97	0x3ba742f8	0.005104419
98	0x3b51f130	0.0032034628
99	0x3c335980	0.010946631
100	0xbc312014	-0.010810871
101	0xbce3cc96	-0.027807515
102	0x3beed240	0.0072882473
103	0xbbdae310	-0.0066799
104	0x3cfe4c44	0.031042226
105	0x3c2d6b98	0.010584734
106	0x3c95c196	0.018280786
107	0x3c8abaae	0.016934719
108	0xbc45e158	-0.012077652
109	0xbc4c0640	-0.012452662
110	0xbb394640	-0.0028270632
111	0xbce4c17e	-0.027924296
112	0x3c9de20d	0.019272828
113	0x3c26b646	0.010175293
114	0xbb32a58b	-0.0027259316
115	0xbc50c5d0	-0.012742475
116	0x3bb9f9cf	0.0056755315
117	0x3cbcf98f	0.023068218
118	0xbd11d8ec	-0.035607263
119	0xbccd9222	-0.025094096
120	0xbc40bdbd	-0.011763987
121	0xbc431136	-0.011905959
122	0xb94468c9	-0.00018731052
123	0xbcf873d4	-0.030328669
124	0xbc57eeb2	-0.013179468
125	0xbcc912b5	-0.024545053
126	0xbb55d845	-0.0032630127
127	0x3d153b86	0.03643372
128	0x3e9df897	0.30853721
129	0x3dc26b29	0.094930954
130	0x3e3df182	0.18549159
131	0x3e27a6fa	0.1637229
132	0x3e8662aa	0.2624715
133	0x3e5e2714	0.21694595
134	0x3e08bfe0	0.13354445
135	0x3e20e566	0.15712509
136	0x3e1282b5	0.14307673
137	0x3e0bc4c1	0.13649274
138	0x3e81b2ba	0.2533167
139	0x3e7b23ca	0.24525371
140	0x3ea270c4	0.31726658
141	0x3e53eac5	0.20695026
142	0x3e7461d3	0.23865442
143	0x3e75a175	0.23987372
144	0xbdc3d73d	-0.09562538
145	0xbe5b883b	-0.21438687
146	0xbe1ac7ff	-0.15115355
147	0xbe104804	-0.14089972
148	0xbe40087f	-0.18753241
149	0xbdf2c6d1	-0.118543275
150	0xbd5621c7	-0.052278306
151	0xbe0e6423	-0.13905387
152	0xbe79df01	-0.24401475
153	0xbdd1efe4	-0.10250834
154	0xbdc3a4b3	-0.09552898
155	0xbdbb500c	-0.09146127
156	0xbe5056f0	-0.20345664
157	0xbe39047d	-0.18068118
158	0xbe0d370d	-0.13790531
159	0xbe1a1fbb	-0.15051167
160	0x3d23a2a0	0.039950013
161	0xbd0208df	-0.03174674
162	0x3c64e952	0.0139716435
163	0x3d42e24a	0.047579087
164	0xbcbff92e	-0.023434248
165	0xbc641f68	-0.013923503
166	0x3cb60261	0.022217931
167	0x3d0e7c98	0.03478679
168	0xbd774aa8	-0.060373932
169	0xbcf11559	-0.029429125
170	0x3cbb1193	0.022835528
171	0x3d86cdfb	0.065822564
172	0x3e10a01c	0.14123577
173	0x3ccc7234	0.0249568
174	0x3c6c74a4	0.014432106
175	0x3decd8ca	0.11564787
176	0x3d54b797	0.051932897
177	0xbcef29a2	-0.029194657
178	0xbcd2743c	-0.02569019
179	0xbdbbe655	-0.09174792
180	0xbde1df4a	-0.11028917
181	0xbcc7d117	-0.024391694
182	0xbd3664c8	-0.044529706
183	0xbd836985	-0.06416611
184	0xbe0243f3	-0.12721233
185	0xbd7a0c33	-0.06104679
186	0xbd199a75	-0.037500817
187	0xbda5064f	-0.08057844
188	0xbcf0b28c	-0.029382013
189	0x3bd869f6	0.0066044284
190	0xbd9fe8ea	-0.07808097
191	0xbd42bd88	-0.047544032
192	0x3d8011f4	0.06253424
193	0x3c82d587	0.015970958
194	0x3c79187b	0.0152035905
195	0x3d8f29f2	0.06990422
196	0xbd9e6a7e	-0.077351555
197	0x3ca79436	0.020456415
198	0xba77f64b	-0.0009459003
199	0x3dffd181	0.124911316
200	0xbca55091	-0.020180019
201	0x38c8ebca	9.580662e-05
202	0xbd631c57	-0.05544695
203	0x3d0b5890	0.034020007
204	0x3de46b93	0.11153331
205	0x3df3a35e	0.11896394
206	0x3e1c7cba	0.15281954
207	0x3dae2efc	0.08505055
208	0xbdfca9dc	-0.123370856
209	0xbda898ca	-0.08232267
210	0xbda112fa	-0.078649476
211	0xbe8f9f67	-0.28051302
212	0xbdb6fa3b	-0.089344464
213	0xbd198265	-0.03747787
214	0xbd25efb9	-0.04051182
215	0xbe1f4676	-0.15554222
216	0x3c351f1a	0.0110547785
217	0xbcd1332a	-0.025537092
218	0x3d552ae4	0.052042857
219	0xbdf7e4d6	-0.12104194
220	0xbd9c3664	-0.07627562
221	0x3d393617	0.0452176
222	0x3d20ec8f	0.0392881
223	0xbda5cff3	-0.08096304
224	0xbcfc90ea	-0.03083082
225	0x3cde5be8	0.027143434
226	0x3c6f0b48	0.014590092
227	0xbca5e944	-0.020252831
228	0x3c7011cc	0.014652681
229	0x39d9bd80	0.00041530654
230	0x3cf51000	0.029914856
231	0x3ca55ee4	0.020186849
232	0x3c9b210e	0.01893666
233	0xbc80fa9a	-0.015744496
234	0x3caa195c	0.020764045
235	0xbcaa64a4	-0.020799942
236	0xbbdc2678	-0.006718453
237	0x3a6a58cf	0.0008939625
238	0x3c470004	0.012146
239	0x3ccb3cb2	0.024809215
240	0x3ca4f18c	0.02013471
241	0xbbdb38ac	-0.0066901054
242	0x3a40ec71	0.0007359451
243	0x3c1fb020	0.009746581
244	0x3acd7e07	0.0015677818
245	0xbce76dd0	-0.028250605
246	0x3cfbf359	0.030755686
247	0x3d33953d	0.043843497
248	0xbca9bcb9	-0.020719873
249	0x3b83f08f	0.0040264796
250	0x3c5ae633	0.013360548
251	0x3ce40a87	0.027837051
252	0x3c787483	0.015164497
253	0x3ce77768	0.02825518
254	0xbc38ee9d	-0.011287359
255	0x3c35f6bb	0.011106188

fc1.bias f4 [100]
0	0x3e009f9a	0.12560883
1	0xbcb1c047	-0.02169813
2	0x3bf4636e	0.007458142
3	0xbd0f0b8b	-0.034923118
4	0xbced22ef	-0.028947322
5	0xbcc8bd8d	-0.024504447
6	0x3dbe3cff	0.09288978
7	0x3df44b8a	0.119284704
8	0xbb241e58	-0.00250425
9	0x3dbf524a	0.09341867
10	0xbc97362d	-0.01845845
11	0xbd0d1424	-0.034443036
12	0xbd16e0dd	-0.03683554
13	0x3d359b5d	0.04433762
14	0x3dd27293	0.102757595
15	0x3d460320	0.048342824
16	0xbc9878d1	-0.018612297
17	0xbd102437	-0.035190787
18	0x3dbdde9f	0.09270977
19	0xbd04710f	-0.032334384
20	0xbc584769	-0.013200619
21	0xbd1289e6	-0.03577604
22	0x3cd3930e	0.025826957
23	0xbc589158	-0.013218246
24	0x3998f17c	0.0002917162
25	0x3dfcd238	0.123447835
26	0xbcb35592	-0.021891389
27	0xbd14414c	-0.036195084
28	0x3dbb580a	0.091476515
29	0x3c1ba2d5	0.009499271
30	0x3de7a57e	0.11310862
31	0x3cbbf239	0.02294265
32	0x3d17e1e9	0.03708068
33	0xbc350972	-0.011049615
34	0x3de65d00	0.11248207
35	0x3cb17e33	0.021666622
36	0xbd16ad3e	-0.03678631
37	0x3d5e5267	0.054277804
38	0x3e12e281	0.14344217
39	0xbc2808dd	-0.010256019
40	0xbbe1e21a	-0.0068934085
41	0x3e05d901	0.13071062
42	0x3dcf0199	0.101077266
43	0x3dea5a4a	0.114430025
44	0xbd0ada2a	-0.033899464
45	0xbcabed5d	-0.020987207
46	0x3d3a3afd	0.04546641
47	0xbd0c168e	-0.034201197
48	0xbbac0673	-0.0052497922
49	0x3de1aec0	0.11019659
50	0xbbdb7309	-0.006697063
51	0x3d7d085c	0.06177555
52	0xbcc2df00	-0.023787975
53	0x3cda23f3	0.02662847
54	0x3c5d4188	0.013504393
55	0xbd09817b	-0.033570748
56	0xbcc4f2d7	-0.024041576
57	0xbc8f117c	-0.017464392
58	0x3ddaba4f	0.10680067
59	0x3d6e5ce8	0.05819407
60	0xbd071fc8	-0.032989293
61	0xbd3ffc68	-0.046871573
62	0xbb81f160	-0.0039655417
63	0x3dbc2a89	0.091878004
64	0x3d2c078e	0.041999392
65	0x3d923b3c	0.07140204
66	0xbd0f2671	-0.03494877
67	0x3b65fe1f	0.0035094095
68	0x3c64ad7c	0.0139573775
69	0xbcc572b1	-0.02410254
70	0xbca28508	-0.019838825
71	0xbd03a658	-0.03214106
72	0xbd028231	-0.03186244
73	0xbc5b2be1	-0.013377161
74	0x3d0702f7	0.032961812
75	0x3c19bbaa	0.0093831215
76	0xbbf2057e	-0.0073859086
77	0x3db66c18	0.08907336
78	0xbba46b00	-0.005017638
79	0x3d1cb536	0.038258754
80	0x3ca1102f	0.019661037
81	0x3cfd0565	0.030886361
82	0x3de350e0	0.1109941
83	0xbc661061	-0.014041991
84	0x3da20f43	0.07913067
85	0xbb9ef0da	-0.004850489
86	0x3c804ece	0.015662577
87	0xbd13e420	-0.03610623
88	0xbcfbe54d	-0.030748988
89	0x3d382a35	0.044962127
90	0x3d9ba6c6	0.07600169
91	0x3b8dae73	0.0043237745
92	0x3ca00966	0.019535732
93	0x3d6af377	0.057361092
94	0xbcd03454	-0.025415577
95	0xbcd90be6	-0.026494931
96	0xbca4635c	-0.02006691
97	0x3dfbbb6d	0.12291608
98	0xbdaffabb	-0.08592745
99	0xbcbcdbc3	-0.02305401

fc2.weight f4 [2, 100]
0	0x3e593745	0.2121249
1	0xbdf4a606	-0.11945729
2	0xbd38fe82	-0.045164593
3	0x3d0a7936	0.033807002
4	0xbd598524	-0.05310549
5	0x3d0a801d	0.033813585
6	0xbeff0127	-0.49805567
7	0x3e55ca99	0.20878066
8	0xbe57226d	-0.21009226
9	0x3e5ae3d9	0.2137598
10	0xbdd24c78	-0.102684915
11	0x3d8fdeee	0.07024942
12	0xbe38ef8b	-0.18060128
13	0xbe4503e9	-0.19239773
14	0x3df1eafe	0.11812399
15	0xbea75610	-0.32682848
16	0x3d869794	0.0657188
17	0x3d9e21da	0.077213004
18	0x3e01a990	0.12662339
19	0xbda83d66	-0.08214836
20	0x3d35e2f1	0.04440588
21	0x3da0118b	0.07815846
22	0xbe45f3c8	-0.19331276
23	0xbde59255	-0.11209551
24	0xbd4d0203	-0.050050747
25	0x3e40380c	0.1877138
26	0xbdd56474	-0.104195505
27	0xbdd10cdd	-0.102075316
28	0x3e24954a	0.16072574
29	0x3c08027e	0.008301375
30	0x3e67fb37	0.22654425
31	0x3e83c138	0.25733352
32	0xbeae4d4c	-0.34043348
33	0xbd36d75f	-0.044638988
34	0x3e1abe42	0.1511164
35	0x3f00ac6d	0.502631
36	0xbb8dbbe2	-0.004325376
37	0x3e848823	0.25885114
38	0x3e98bcdc	0.29831588
39	0xbde8c39f	-0.11365437
40	0xbe998df6	-0.2999112
41	0x3e90bd3d	0.28269377
42	0x3e3c52ce	0.18390962
43	0x3e6c5e39	0.23082818
44	0x3c5a6873	0.013330567
45	0xbbb688cd	-0.005570507
46	0x3de0a3a6	0.109687135
47	0xbcd6060e	-0.026125934
48	0xbcbf4f99	-0.023353385
49	0x3e868776	0.26275223
50	0xbd9d5813	-0.076828144
51	0xbe951d9a	-0.29124147
52	0xbcb727ec	-0.022357903
53	0x3f1124ed	0.5669697
54	0x3cf88415	0.03033642
55	0xbd95eddb	-0.07320758
56	0xbd8234b5	-0.06357709
57	0xbdabb70f	-0.08384525
58	0x3e113b04	0.14182669
59	0x3ec71a5a	0.38887292
60	0x3d866a14	0.065632015
61	0xbdbd3058	-0.092377365
62	0xbd32c19a	-0.043641664
63	0x3e3adb0a	0.1824762
64	0x3ea6d0ac	0.3258108
65	0x3e8efe6e	0.2792849
66	0xbdf4dc2b	-0.11956056
67	0x3b309a11	0.00269473
68	0xbe76bc5e	-0.24095294
69	0x3dd13d17	0.1021673
70	0xbe83b115	-0.2572104
71	0xbd279b80	-0.04091978
72	0xbdaf6282	-0.08563711
73	0xbde83e27	-0.113399796
74	0xbf03199e	-0.51210964
75	0xbe1a2f01	-0.15056993
76	0x3d5278d8	0.051384777
77	0x3e8533df	0.26016137
78	0xbc6e66ae	-0.014550848
79	0x3ef1a824	0.47198594
80	0xbeccc15d	-0.39991274
81	0x3eec2c9f	0.46127793
82	0x3e821bdd	0.25411883
83	0x3d70ff66	0.058837317
84	0xbed3016f	-0.4121203
85	0xbc98edb7	-0.018668039
86	0xbe13f61e	-0.14449355
87	0x3d4b0e70	0.049574316
88	0x3d9ef2e4	0.077611715
89	0xbeae919e	-0.34095472
90	0x3e809244	0.25111592
91	0x3ca6a0d1	0.020340355
92	0xbeb22c97	-0.34799644
93	0x3e608266	0.21924743
94	0xbead47c4	-0.33843815
95	0xbdb2a199	-0.087222286
96	0xbdd4f685	-0.10398582
97	0x3e05f120	0.13080263
98	0xbe838e0c	-0.2569431
99	0xbd431786	-0.047629856
100	0xbe384d2b	-0.17998187
101	0x3e01bd6d	0.12669916
102	0x3d4a3b8d	0.0493732
103	0x3d50ceba	0.0509784
104	0xbd93e551	-0.07221473
105	0x3c2dfabe	0.010618864
106	0x3f01638b	0.50542516
107	0xbe6d52cb	-0.23176114
108	0x3da1041d	0.07862113
109	0xbe7d877f	-0.24758719
110	0x3e4c26ba	0.19936648
111	0x3d92693c	0.07148978
112	0x3e151565	0.14558943
113	0x3d076f90	0.03306538
114	0xbe44b725	-0.19210489
115	0x3e86d13b	0.26331505
116	0xbd658259	-0.056032512
117	0x3d5afec7	0.05346563
118	0xbe631d04	-0.22179037
119	0x3d46f72e	0.048575573
120	0xbd95d45f	-0.07315897
121	0x3d9b00df	0.075685255
122	0x3df777b4	0.120833784
123	0x3e53536d	0.20637293
124	0x3cb10486	0.021608602
125	0xbe5a2d9d	-0.21306463
126	0xbcfed5fc	-0.031107895
127	0x3ddbd78c	0.10734472
128	0xbdfe7ec2	-0.12426521
129	0xbd75d649	-0.06001881
130	0xbe258ea1	-0.1616769
131	0xbe216d58	-0.15764368
132	0x3ef23956	0.4730937
133	0xbd339a2d	-0.043848205
134	0xbe64dcba	-0.22349826
135	0xbecac4b3	-0.39603195
136	0xbd5d2669	-0.05399171
137	0xbe836bd2	-0.25668198
138	0xbdec6c29	-0.115440674
139	0x3e6948a7	0.22781621
140	0x3ea82aab	0.32845053
141	0xbdb85f74	-0.09002581
142	0xbe91f2fa	-0.2850569
143	0xbe237819	-0.15963782
144	0x3c7f515d	0.015583363
145	0x3d9a292d	0.07527385
146	0xbe12b51a	-0.14326897
147	0x3d8ff49d	0.07029078
148	0x3d50b077	0.05094954
149	0xbdfebc90	-0.12438309
150	0xbdb115b4	-0.08646718
151	0x3eab1b3c	0.33419216
152	0x38c03c7a	9.166538e-05
153	0xbf169468	-0.588202
154	0x3ce465c1	0.027880551
155	0xbc180ce0	-0.009280413
156	0xbd90d382	-0.07071592
157	0x3e8c5daf	0.27415225
158	0xbe70c402	-0.23512271
159	0xbeb73c93	-0.35788402
160	0x3da9c19d	0.08288882
161	0xbdb7241e	-0.08942436
162	0xbd22bebd	-0.039732683
163	0xbe49407e	-0.19653508
164	0xbe9e228f	-0.3088574
165	0xbe73a8e4	-0.23794895
166	0x3e5953ca	0.21223369
167	0xbbfddc10	-0.0077471808
168	0x3dfc592b	0.12321695
169	0x3db944c8	0.09046322
170	0x3e93c453	0.2886072
171	0x3d626ba1	0.055278424
172	0x3db11a6c	0.08647618
173	0x3e8acaaa	0.27107745
174	0x3efc022d	0.4922041
175	0x3e52829d	0.20557638
176	0x3d89106f	0.066925876
177	0xbe0f978a	-0.14022651
178	0x3d72938d	0.059222747
179	0xbee7d390	-0.45278597
180	0x3ecdd73c	0.40203273
181	0xbf0601c4	-0.52346444
182	0xbe57cb19	-0.2107357
183	0x3d7a70b5	0.061142642
184	0x3eb25170	0.34827757
185	0xbda79ad5	-0.08183829
186	0x3c89504c	0.016761921
187	0xbd72691e	-0.05918228
188	0xbc9c9b61	-0.01911706
189	0x3eafd318	0.3434074
190	0xbdeb8fb5	-0.11502019
191	0x3c12b5ef	0.008954509
192	0x3e9ea3b4	0.3098427
193	0xbea77632	-0.32707363
194	0x3ea7515e	0.32679266
195	0x3e5ee2f5	0.21766265
196	0x3e3a139c	0.18171543
197	0xbe7dcc9d	-0.24785085
198	0x3e261e45	0.16222484
199	0x3d693c5d	0.056942333

fc2.bias f4 [2]
0	0x3d847940	0.06468439
1	0x3c4706ca	0.012147615
